static/models/torch_model1.pth (torch_old, 173848 bytes, 11 tensors)

word_embeddings.weight f4 [389, 20]
00000000: f029 d0bf 1f52 69bf 203f 2dbf 8323 d9bf
00000010: cadf abbd 0747 27bf c1eb 87bf cd29 dcbf
00000020: 7847 53bf 6ccc 9d3e 6611 65bf 4b57 adbe
00000030: f86b 54be 366d d93f 741d 933e dbea f13e
00000040: 8688 42bf 4a42 9bbf e22a 3d3f 7621 583e
00000050: 049e 5d3f 0645 7a3e 8fb4 29bf c1ab 4e3f
00000060: df03 8d3f 9428 34be 38b7 0fc0 8925 b9bf
00000070: f67d 7a3d 8124 1ebf 4e4e 4cbf 3cc8 06be
00000080: 678e f03f d4b9 93bd 9e8e 213e 2401 46bf
00000090: 78d5 4b3e d632 3b3d bda0 1c3e 2c8c f3be
000000a0: b03d dcbd aa04 963e 110d 24be db61 f4bc
000000b0: 211a 1740 a549 85bf d985 c93f b1dd 20bf
000000c0: ece1 6cbf a5c2 0b3f 8974 793d 1816 dfbe
000000d0: 569f 433f aac7 e43e 9f65 953f ffef 0040
000000e0: bb6b 083e 5427 703f 5c83 3bbe 13d5 23bf
000000f0: 7b5b c53f bddb 5ebf 8760 55c0 9b30 40bf
00000100: 0487 babc fa4e 83bf 6259 18bf 7995 80bf
00000110: 8ce1 53be a3d1 9dbb 7655 d53f 945e 433c
00000120: 3be0 33bf 5f97 37be 3e62 7ebf b026 55bf
00000130: 887b efbe f15c 0fbf 78df cb3e 1c48 7abf
00000140: 210e e4be 2eaa e93d 7ebe 32bf 4ed4 403f
00000150: b1ff b0bf 7b02 04bf d78a 253e 3415 3cbe
00000160: 88a1 9e3e 0020 ffbe 7c18 84bf f3c3 453f
00000170: 1e1b 8dbf 67ac e1be b92d 903e cebe ff3f
00000180: 8187 263f 4e1e 963f e855 4b3f f3c9 74bf
00000190: 3dfa a83f d4aa 5cbf 131f 80bf 4aa4 883f
000001a0: 5f6b ae3f 4c52 1a3f 3b54 debd 1ec1 62be
000001b0: 4779 0cc0 2245 19bf 0fe5 c4bf 3b5d 9abf
000001c0: aac4 603f bb53 05bf 8b50 aa3f 08e9 503f
000001d0: 6124 2f3e 51c5 ad3e dbbc 0f3f dd98 bbbe
000001e0: 6b05 2440 0c36 71be 6aa1 6cbc 78bf ed3f
000001f0: 5614 fdbf e18a e53f d25e d43d 327a af3e
00000200: 3583 373f 621a e3bf e615 b23e bf02 9a3f
00000210: 2638 99be f7fc e0bf 984b 233f 3e78 4ebf
00000220: 0b12 cfbf d498 efbf 5590 0b3f 82d9 293f
00000230: abdc 1240 7bb0 2b3f dd42 db3f f17d e7bf
00000240: 2a2a aebf f98d 7cbf 5f8d c13f 7f87 233f
00000250: ac44 ed3e 3cd5 d8be 369f 0b3f f802 c7bf
00000260: a9f3 053f 6509 e93d a873 8d3e 712d a83f
00000270: cb8f de3f 55ed ec3f 22cd 34bf a88f 2440
00000280: 3373 863e 1455 c4be 776d 58bf 77ee f3be
00000290: 3df3 27bf 603e 6fbf 27e5 613f c5a9 793f
000002a0: c4ab 6b3e 29b7 cc3f b8ec 993f 8adb f4bf
000002b0: 6a67 c3be 8e8f 83bf 38c0 5dbb bb3f 3abd
000002c0: e326 423f 893c 973f 1c83 033f b08d d13f
000002d0: e661 7abf 70c0 0a3e 0ec1 1ebe c027 b3be
000002e0: d413 db3f 686e 97be d8c4 733e 949f ac3f
000002f0: ccdb ce3d c48d 8c3f cbea a7be 2a65 723f
00000300: efe5 11bf c2f5 523f cca9 e33f dc5e 40be
00000310: fa40 053f f005 edbf 0fd7 3ac0 0bc3 14bf
00000320: 5fbc 08bf 2473 633f 333a 62bf 73c4 0e3f
00000330: 94bb c8bf 60bf 3ebe 185b 423f 7cf5 e13d
00000340: ec8c 673f df5b 853f 7ab7 05bf bd45 ae3f
00000350: 4aa8 7e3e 9cc7 f13f 38ad eb3f d7d8 a93f
00000360: ca63 78bf cfe8 9e3f 9236 9d3f 2484 02bf
00000370: 2939 623e 98f8 12bf 0e6b ba3f 037c e23f
00000380: c16d d33f 006b debe 266a 8abe ed1d b8bf
00000390: bccf 9f3f 4f40 a33f 1cbc c63e a08d c63e
000003a0: adc2 a0bd 6f19 b03e 52ff 723f c61b b1bf
000003b0: 0545 dc3f 5e4d 17c0 68ad 6dbf 801f 973e
000003c0: c7c2 5f3e 857c 703f c42a bb3f d966 0ebf
000003d0: a6c6 3dbf fa19 51be 8ac5 6abe 6afb 363a
000003e0: a936 c23e 654e 14bf c552 13bf a97a 813f
000003f0: 87b2 d9bd b788 96bf 528e b6bd 5753 103f
-1.6262798 -0.9114093 -0.67674446 -1.6963962 -0.08392294 -0.65342754 -1.0618821 -1.7200257
-0.8253093 0.30820024 -0.8947967 -0.33855662 -0.20744312 1.6986454 0.28733408 0.47249493
-0.7598957 -1.2129605 0.7389356 0.21106514 0.8656924 0.24440393 -0.66291136 0.80730826
1.1016806 -0.17593604 -2.2455578 -1.446458 0.061155282 -0.6177445 -0.79806983 -0.13162321
1.8793458 -0.07213178 0.1577706 -0.7734549 0.1990565 0.045702778 0.15295692 -0.4756788
-0.107539535 0.29300433 -0.1602061 -0.029831817 2.3609698 -1.04131 1.5743972 -0.62838274
-0.9253223 0.5459388 0.060902152 -0.43571544 0.76415 0.44683582 1.1671637 2.0146482
0.13322346 0.9381001 -0.18311828 -0.63997 1.5418543 -0.87054044 -3.3340166 -0.75074166
-0.022769459 -1.0258477 -0.5951139 -1.0045615 -0.20691508 -0.0048162504 1.6666706 0.011924405
-0.70264024 -0.17928837 -0.99368656 -0.8326216 -0.46773934 -0.5600119 0.3981893 -0.9776628
-0.4454203 0.11409412 -0.6982192 0.7532395 -1.3828031 -0.51566285 0.16166244 -0.18367463
0.30982614 -0.49829102 -1.0319972 0.7725212 -1.10239 -0.44076845 0.28159884 1.9980104
0.6505051 1.1727998 0.7942796 -0.9562065 1.3201367 -0.86198163 -1.0009483 1.0675137
1.3626517 0.60281825 -0.108559094 -0.22143981 -2.1949022 -0.59871113 -1.5382403 -1.2059702
0.87800086 -0.5208089 1.330583 0.8160558 0.17103721 0.33939603 0.56147546 -0.36640063
2.5628307 -0.23555773 -0.014442781 1.8574057 -1.9771831 1.7933007 0.10369648 0.34272915
0.7168458 -1.7742426 0.34782332 1.2032088 -0.2992565 -1.7577199 0.6378722 -0.80652225
-1.6177381 -1.8718514 0.5451711 0.66347516 2.2947185 0.6706616 1.712978 -1.8085309
-1.3606617 -0.98654133 1.5121268 0.63878626 0.46341455 -0.42350185 0.5453981 -1.5547781
0.5232492 0.11378745 0.276273 1.3138868 1.7387632 1.8509928 -0.7062551 2.571268
0.26259765 -0.3834616 -0.8454203 -0.47642872 -0.6560553 -0.9345455 0.88240284 0.9752467
0.23014742 1.5993396 1.2025366 -1.9129498 -0.38164836 -1.0278184 -0.0033836495 -0.045470934
0.75840586 1.1815349 0.5137193 1.6371365 -0.9780563 0.13549972 -0.15503332 -0.34991264
1.7115426 -0.2957642 0.23805559 1.3486199 0.10100517 1.0980763 -0.3279632 0.94685614
-0.56991476 0.82406247 1.7786193 -0.18786186 0.5205227 -1.8517437 -2.9193761 -0.5811011
-0.5341243 0.88847566 -0.88370055 0.5576851 -1.5682244 -0.18627691 0.7592025 0.110331506
0.90449405 1.0418662 -0.5223309 1.3615032 0.24868885 1.8889041 1.8412237 1.3269299
-0.97027266 1.2414798 1.2282279 -0.5098288 0.22092117 -0.57410574 1.456392 1.7694095
1.6517869 -0.4344101 -0.2703411 -1.4384133 1.248527 1.2754 0.3881539 0.38779926
-0.078496315 0.34394404 0.9492084 -1.3836601 1.7208563 -2.364097 -0.9284272 0.2951622
0.21851645 0.9394 1.4622426 -0.55625683 -0.7413124 -0.20420066 -0.22926918 0.00069802126
0.37932327 -0.5793212 -0.5754817 1.0115558 -0.106297545 -1.1760472 -0.08913864 0.56377167

lstm.weight_ih_l0 f4 [200, 20]
00000000: 6368 07be 9432 91bd c95b 11bd 7a10 15be
00000010: 07c4 293d ac32 903c b706 413d 0de4 97bd
00000020: 73a7 9cbd 6cec 9c3d e675 eb3d 3ce3 a03d
00000030: cc08 c3bd 7e79 0abc 7dd8 c9bd 3dc5 433d
00000040: 15ff ccbd df86 2c3d a1ef c1bb cb9d 03bd
00000050: 3ec4 d7bd 2eaa ebbd 2c13 57be f468 143c
00000060: 2d16 903d 31a8 883c 1d8f 36be 0b31 f43d
00000070: d539 5dbe 060f 883d ba4d 02be a35a 7f3c
00000080: 5f21 ad3c 1533 68bd c782 40bc b8c3 993b
00000090: ff15 283e cf32 3ebe 19ed 313e 67c0 1d3e
000000a0: 9339 083e d307 d6bc 50a6 44bd 613a d3bc
000000b0: 55a6 b73d fb61 ee3a 0d9f f83d 6d50 4bbc
000000c0: d98e 4fbe 1fbc 0b3e bc05 5ebd 38b0 fc3d
000000d0: fedd f2bc a3b7 eb3d e30a 87bb 0dfc d73c
000000e0: 3a4a 84bd 8477 a0bb 8d17 843d d0e1 c73c
000000f0: a6d8 673d 10c3 5c3d 4a57 42bd e17e a73d
00000100: c73a 4d3d f154 98bd 1f85 edbd f96d 26bd
00000110: 2588 eebd 31e8 44bd dd67 f4bd 85b8 2bbe
00000120: 2e10 d2bd f8ad 45bd 2054 0e3d 33ba d93d
00000130: 9434 b63d e22f 123d e4a0 c4bd f1b6 2c3d
00000140: 877d f43d 58c7 a93c 37b3 8e3d 7d9b 2ebd
00000150: 1dc7 713d ccfe 05bd 0cd2 493d 939c a5bd
00000160: b74d e8bd 1a19 123e 758e db3d 2efa f93c
00000170: 2f03 2d3d b143 24be 4498 ddbd dbe8 ae3b
00000180: 3510 f73a 7829 4fbd b0df fcbd 3e2a d13c
00000190: e42e a13d 45e7 b8bc 5c9b 613c 1fb3 afbd
000001a0: a0b5 85bd fed8 943d b69f 2abe cb74 aa3d
000001b0: 16df a23a 74e5 203e e0a6 cbbd dd9b 00bd
000001c0: 9a20 0ebe 17dc 9d3d 7e12 e9bd 3891 73bd
000001d0: d186 053c c0eb 173e f3af 79bb 200c a63d
000001e0: 948c 0ebe 5306 09be c3a3 643d 490d 9b3b
000001f0: 5e2a 763d 963a aebd beab c43c bb40 933d
00000200: 5418 05be bf7b 0f3b 116a 2cbe 898e d33d
00000210: b13a aa3d e5d9 e8bd b0d1 d6bd 37a9 a7bd
00000220: 29aa 953d 7853 d93c 7950 91bd cec8 24bd
00000230: af0b 0abe b786 e6bd 73fa bf3c a75c 303d
00000240: aea2 0b3e d915 ed3d 0c3a a7bd ebe3 e8bb
00000250: 023f 943d faf0 9a3c 74c6 1bbd f162 7d3b
00000260: c025 79bb da5a 173e d377 d5bd 3e9a 07be
00000270: 966c 59bd 83c5 76bd 0a75 d43d 140b b0bd
00000280: d64b 19be 26e9 bfbc f63e 9bbd 2331 89bd
00000290: 2da0 f43d 3147 dabd 5943 913c 0fb1 b83c
000002a0: bf65 69bd 8a44 463e 595d 0b3e df58 e0bd
000002b0: 29ff afbd a077 3fbc b94d 01be da67 403e
000002c0: d853 113e abd2 d9bd c353 1c3e 7486 3dbd
000002d0: 189b 29be cfda 3e3d 75c0 083d ffed 813b
000002e0: 5188 3dbe 1e03 e63d 58f1 13bd 336c 12be
000002f0: 3563 82bd 4c38 81bc 299d abbd 2296 d93c
00000300: 5a8c fa3d bd78 27be 83da afbb 5070 803d
00000310: a61a a4bd 1de7 a33d 4d68 2d3d bf9a 0dbe
00000320: 45d0 14bc 2e97 0e3d 1fea 2b3d 1b82 8d3d
00000330: 408e a03d 9236 973d 3ecb 99bc 1131 dcbd
00000340: 543f 19be 1efb 89bd 00b4 d63d 84b4 33bc
00000350: 3f0f b3ba 6875 583d c846 1abd 91c6 103e
00000360: af2b 99bd 20be 84be 0be9 433d 2b45 1a3d
00000370: ea79 ef3d b175 48be 37ea ff3a 7989 a73d
00000380: 0fd4 df3d 335a b5bd a006 aebd 9137 6fbd
00000390: d053 95bd 42fb c83c c817 d5bd f713 3dbe
000003a0: fcca af3d 1266 c4bd c629 babb 5e50 a3bd
000003b0: 8bf3 95bd 1b9f 073b 868c e2bc 2efe cdbd
000003c0: 9352 00be e9c1 933c 839e 3fbe ef32 c33c
000003d0: fac2 c4bd 4b0c 75bc 6e46 373e 8178 553d
000003e0: f00a 353c 1678 14bd 8dfd eb3b 1138 2cbd
000003f0: b49f 07be 9c30 e6bd 2c06 323d a231 55bd
-0.13223414 -0.07089725 -0.035487924 -0.14557067 0.041446712 0.017602287 0.047125544 -0.07416544
-0.07649126 0.076622814 0.11497097 0.078558415 -0.09523162 -0.008451818 -0.09855745 0.047795523
-0.100095905 0.04212081 -0.0059184586 -0.032132905 -0.10535477 -0.115070686 -0.21003407 0.009058226
0.0703548 0.016681762 -0.17828031 0.11923417 -0.21604092 0.066434905 -0.12724963 0.015585574
0.021134077 -0.05668934 -0.01174993 0.004692521 0.16414641 -0.1857407 0.17375602 0.15405427
0.13303213 -0.026126778 -0.04801017 -0.025784673 0.08967272 0.001818716 0.121397115 -0.012409312
-0.20269336 0.13645981 -0.054204687 0.123382986 -0.02964687 0.11509635 -0.004121171 0.026365304
-0.0645947 -0.00489706 0.064498045 0.024399668 0.056603096 0.053896964 -0.047446527 0.08178497
0.050104883 -0.07438076 -0.115976565 -0.04063222 -0.11647061 -0.048072997 -0.11933873 -0.16769607
-0.10256992 -0.048261613 0.034748197 0.10631218 0.08896747 0.035690196 -0.09601 0.042166654
0.11938005 0.020724937 0.06967776 -0.042628754 0.05902778 -0.032713696 0.049272582 -0.08086505
-0.11342948 0.14267388 0.10720531 0.030514803 0.042239364 -0.16041447 -0.10820058 0.005337817
0.0018849435 -0.050576657 -0.123473525 0.025532838 0.07870272 -0.022571215 0.013769951 -0.085790865
-0.06528783 0.072679505 -0.16662487 0.08323058 0.0012426104 0.1571253 -0.09943938 -0.031398643
-0.13879624 0.077079944 -0.1138048 -0.059464663 0.0081498185 0.14836025 -0.0038099259 0.081077814
-0.13920814 -0.13381319 0.055820238 0.0047318083 0.060099 -0.08507268 0.024007674 0.07190081
-0.12997562 0.0021893827 -0.16837336 0.10329921 0.08311976 -0.11369685 -0.104892135 -0.08186572
0.07307846 0.026529059 -0.07095427 -0.040230565 -0.1348102 -0.112561636 0.023434853 0.04305711
0.13636276 0.11576433 -0.081653684 -0.007107248 0.0723858 0.018913735 -0.038031057 0.003866371
-0.0038016886 0.14780751 -0.10423245 -0.13242432 -0.05308207 -0.060246956 0.10373886 -0.08595863
-0.14970335 -0.023426604 -0.07580368 -0.06698825 0.119446136 -0.1065811 0.01773231 0.022545366
-0.0569818 0.19362083 0.13609828 -0.10954451 -0.0859359 -0.011686236 -0.12627305 0.18789616
0.1419214 -0.10635885 0.15266328 -0.046270803 -0.1656307 0.04659539 0.033386666 0.003965139
-0.18509032 0.11231063 -0.036118835 -0.14299087 -0.063665785 -0.015773915 -0.08379585 0.026560847
0.12233801 -0.16354652 -0.005366625 0.06271422 -0.08012895 0.08003066 0.042335797 -0.13828562
-0.009082858 0.034812145 0.041971322 0.06909581 0.07839632 0.07383455 -0.018773671 -0.10751546
-0.14965564 -0.0673735 0.10483551 -0.010968331 -0.001366116 0.052846342 -0.03766516 0.14138247
-0.07479035 -0.25926304 0.04782967 0.03766362 0.11693175 -0.19576146 0.0019524758 0.08180518
0.10929119 -0.08855095 -0.08497357 -0.0584026 -0.072913766 0.024533872 -0.104049265 -0.18464647
0.08583638 -0.09589781 -0.0056812493 -0.07974313 -0.07321843 0.00206942 -0.027654897 -0.100582466
-0.125315 0.0180368 -0.18712811 0.023827998 -0.09607501 -0.014956544 0.1789796 0.052116875
0.011049971 -0.036247335 0.0072018565 -0.042045657 -0.13244516 -0.1123974 0.043462917 -0.052049287

lstm.weight_hh_l0 f4 [200, 50]
00000000: d47c d33c 52cd 493d 5a13 9d3d a972 bd3d
00000010: 5ab8 bdbd 8e03 cabd a297 103e 38e0 b83d
00000020: a320 2a3c fc60 6dbd 5688 d8bd 4a8f 993b
00000030: 7c4a 093d 99fb 353a dc7a 64bd 49c7 c13d
00000040: 4215 1a3c 3560 8a3c 0904 873d 973a 093e
00000050: 8deb d7bd b8bd ce3d 26bc c43d 60c3 01bd
00000060: 0fdf 55bd fc71 863d 4db9 a1bd f45f 9f3d
00000070: 325e ebbd 35f6 473d 4e53 b53d dfca b8bd
00000080: c9dd 83bd 8aad 473d 6490 87bd 4cb7 9e3d
00000090: 842a a1bb 9e63 f4bc dc1c 013e a250 41bd
000000a0: 85da 78bc bbac 663c 8800 07be 3874 133e
000000b0: c2cd 003e be90 2abc 3aa9 cc3d 7ca3 ccbd
000000c0: 80d2 84bd f624 6a3d 0685 9bbd e7c7 05bd
000000d0: d28f 2c3e bbb3 11be b332 c73d a5df 22bd
000000e0: 71cf dfbd abad 0fbe df83 033d f919 97bb
000000f0: 4ec3 cebd a4ac fdbd 7937 a0bd 395d 59bd
00000100: 8d05 213c bbf8 e73d c933 743c c2ee 11bd
00000110: ca3d e1bc 2dda f63c 59fa 52bd f825 ce3b
00000120: cacb ca3d 53a9 d7bd 641f 023d c8be b539
00000130: d7a6 903d 4bd2 0f3d 08e1 92bd 6646 06bd
00000140: 6113 ab3d 3c2a a3bd 7537 003e d025 24bd
00000150: 4b8f 123d 2432 a63d 1887 8b3d 1e2b b63d
00000160: 796b f5bd 5fdc dcbd 405b 0bbe df4b 9b3d
00000170: faf9 533d 1239 f8bd 2246 e63d f174 c03d
00000180: 4569 cd3d b71a 6bbd c374 13be 290a 06be
00000190: 47df 0fbe 72ec af3c 8aa1 06bd f62d 1f3d
000001a0: 537f 56bd eeab c83d 62f9 453c a5e0 8cbc
000001b0: 0ae1 04be e1e4 2c3d 505a 253d af43 a8bb
000001c0: f79a babd 69a3 3bbd bfe5 163e df36 403d
000001d0: 51bd f53d e732 343d 45d4 7bbd 63ba 1c3e
000001e0: 43fc 44bd bac5 a9bd 73ab 93bd 3f56 05bd
000001f0: e8b5 0cbe 51c5 7ebc a5b1 afbd bd6b d33d
00000200: 0eae 1a3e 862f 403d 20fc 233a 25fe 013e
00000210: d9ca 07be 539a 463c fefc edbc c60c 283d
00000220: 40f6 5fba 71cb ba3d a4fa 223c 11ed 613d
00000230: 883c 1dbc 779c 9f3d f5ca 633d ae41 883d
00000240: 20a5 963b 1a00 10be f3b0 78bd bd96 aebc
00000250: a5f1 a33d 0531 1fbe 200d 75bd 048b 573d
00000260: 187e 983d 3065 47bd 351d efbd c939 0d3d
00000270: ff4a 45bd c9e8 323d 5618 eb3d 5700 4a3d
00000280: 8dce 8d3d d258 ef3d f53c 8ebd d8c1 663d
00000290: 9518 a33b b266 b03d db5a 393d 6d94 e3bc
000002a0: b79d 2a3d a4da e53c 0627 c6bd e8f4 823d
000002b0: cff7 d6bd 05ca 133e bb83 cebd c6f0 9f3c
000002c0: 9d17 b0bd 59be 7f3d a736 ddbd 0c19 523b
000002d0: 5115 a73d 68c1 e6bd f2e4 5fbd 1e67 c03d
000002e0: 31cd c23c 9ffe a03d 996c c33c d347 07ba
000002f0: 2c5a a8bd 7e13 5dbd 2e29 0cbe df3c 023e
00000300: 69aa 133d 413e cfbc 9e08 8bbd 650a 2fbd
00000310: 9e74 83ba d06a 5f3b 575c 8a3d 53f7 b6bd
00000320: 2129 00bd cbec bdbd 482a 0a3e b389 fe3d
00000330: ebf7 f0bc b946 b83c b4c8 943d 6c78 e93d
00000340: dafe c73d 3cac 17bd 4faa f1bd a06b 073e
00000350: 5969 623d b323 f5bd 1e4d fa3c a047 d43d
00000360: ee08 c6bd 6c4c d3bd 526e 37bd 992f 7f3d
00000370: 053d 1fba 2f65 a13d 5b69 0dbe 5b47 28bd
00000380: f7cf aabc a346 cf3d 95b0 e4bd 2a3b f4bd
00000390: 2269 c33d ebea 14be 35e1 f7bc 686d bb3d
000003a0: 3459 373c 2967 033a b6da 12bd 95c6 063e
000003b0: 365b 9c3c 65c4 0bbd 0298 ba3d b82d d63c
000003c0: 5489 ad3c 641e 5f3d 7846 7f3d 4cdc 95bd
000003d0: f93a bf3d 3ec5 81bd 9e7f de39 4c76 9a3d
000003e0: 3e8a 0d3e 6a1a 9e3d 17f9 05be ca41 b5bd
000003f0: 2683 553d 4a9c 97bd 672e 423b c963 eebd
0.025816359 0.049268074 0.07669707 0.09250385 -0.09263678 -0.09863959 0.14120343 0.09027141
0.010383758 -0.05795382 -0.10572879 0.004686271 0.0335183 0.0006942093 -0.05578123 0.09461839
0.009404482 0.016891578 0.065925665 0.13401257 -0.105429746 0.1009478 0.09606199 -0.031680465
-0.05221468 0.065647095 -0.078966714 0.077819735 -0.11492576 0.048818786 0.0885378 -0.090230696
-0.064387865 0.048749484 -0.06619337 0.07749805 -0.0049183983 -0.029832657 0.12608665 -0.047196038
-0.015188818 0.014079268 -0.13183796 0.14399803 0.1257849 -0.010410486 0.09993215 -0.0999212
-0.06485462 0.057164155 -0.075937316 -0.032661345 0.16851738 -0.14228718 0.09726467 -0.039764065
-0.10928238 -0.14031093 0.032108184 -0.0046112505 -0.10095845 -0.12386444 -0.078230806 -0.05306742
0.009827984 0.113267384 0.014904925 -0.035628088 -0.027495284 0.030133331 -0.05150828 0.0062911473
0.09902151 -0.10530343 0.031768218 0.00034665153 0.07063072 0.03511266 -0.071718276 -0.03278198
0.083533056 -0.0796704 0.12521155 -0.040075123 0.035781186 0.08115032 0.068128765 0.08894943
-0.119833894 -0.1078422 -0.13609028 0.07582831 0.051752068 -0.1212026 0.112438455 0.09397305
0.10029844 -0.057398524 -0.1440001 -0.13089813 -0.14050017 0.02147505 -0.0328689 0.03886219
-0.05236752 0.09798418 0.012083383 -0.017196963 -0.1297647 0.042210463 0.04036933 -0.0051350216
-0.091115884 -0.045810137 0.14736079 0.04692733 0.11999 0.043993857 -0.061481733 0.15305476
-0.048092138 -0.082896665 -0.07210436 -0.032552954 -0.13741267 -0.015549974 -0.08578805 0.10323284
0.15105459 0.046920322 0.0006255526 0.12694605 -0.13260974 0.012121755 -0.0290513 0.041027807
-0.0008543469 0.091208346 0.009947453 0.055157725 -0.009596951 0.07793515 0.055613477 0.066531524
0.004597321 -0.14062539 -0.060715627 -0.021312112 0.080050744 -0.15546043 -0.05982697 0.05262281
0.074459255 -0.048680484 -0.11675493 0.034478936 -0.048167225 0.043679032 0.11479251 0.04931673
0.06924162 0.11686863 -0.069452204 0.056337208 0.0049772956 0.086133376 0.045252662 -0.027780736
0.041654315 0.028058358 -0.09675412 0.063943684 -0.104964845 0.14432533 -0.10083719 0.01952399
-0.08598254 0.06243739 -0.1080144 0.0032058386 0.08158363 -0.11267358 -0.0546617 0.09394668
0.023779484 0.07861065 0.023855494 -0.0005160544 -0.08220324 -0.053973667 -0.13687584 0.12718533
0.036051188 -0.02529824 -0.06788753 -0.042734522 -0.0010029261 0.0034090765 0.06755894 -0.08933892
-0.031289224 -0.0927368 0.13492692 0.12428608 -0.029415091 0.02249466 0.072648436 0.11399922
0.09765406 -0.03702949 -0.11800062 0.1322465 0.05527625 -0.119697 0.03055435 0.10365224
-0.09669672 -0.10317311 -0.044782944 0.062301252 -0.0006074461 0.07880627 -0.13809721 -0.041083675
-0.020851118 0.10120895 -0.11166493 -0.11925347 0.09541537 -0.14542739 -0.030258754 0.09151727
0.011190701 0.00050126255 -0.03585311 0.1316169 0.019086462 -0.034122843 0.091110244 0.026144847
0.021183647 0.054472342 0.062323064 -0.07317409 0.0933742 -0.06336449 0.00042438222 0.075420946
0.13822266 0.07719882 -0.13083301 -0.08850439 0.052127026 -0.07402857 0.0029629709 -0.11640126

lstm.bias_ih_l0 f4 [200]
00000000: 989f 973d dc9a 3c3e c140 523e 2cde ac3d
00000010: af6c 9b3d e4de d13c 87a7 0f3e 2394 0d3e
00000020: 042b 9d3d 46ba 263e 0fba c73d c257 5f3d
00000030: f309 6d3e 1e0d 4e3e 6b8c 0f3e 94c3 323e
00000040: 9c7b 813d c0d7 553e 2d47 b73d 5442 5b3d
00000050: 4071 cc3d 1d2f f03d c7f5 543e 169e 163e
00000060: b7b0 e93d dadb 4b3e 8246 79bb 9eaf d33e
00000070: 5020 ae3d 1640 c93c 3368 783e 42fe 3d3e
00000080: c5f1 883e 0cbe 79bd 968a 123e 4ee0 7a3e
00000090: d3c3 90bc 44da 073d d1eb 5f3e 0450 943d
000000a0: 4cda bd3d d9a7 c93c 5f5d 81bd badf ee3d
000000b0: 191e 843e 7d17 da3d a65c 893e c839 3b3e
000000c0: cc1a 543e 30b1 223e eca7 83bd d6f9 753e
000000d0: 6d99 6a3e 3c4b 023e e158 68bd 126b b73b
000000e0: 1f02 453d 81f4 cc3c 9630 c93d 7950 9fbc
000000f0: 2c7e 4abd 8b8c 2e3e aa17 023e 93c6 cb3d
00000100: 68ad 83bc cb24 d03c c616 af3d b20d 3d3e
00000110: 5e24 563d 1350 0c3e 0039 253c 7e54 8f3d
00000120: 01c0 f13d d5e2 353d 118e 47bc b503 413e
00000130: 4b2c 12bd 865c df3e a4d1 ca3d 13ed 183e
00000140: 1159 003e e8d8 423d 72f4 273e 816c f03c
00000150: 24db 983c 6983 b03c 09de a7bd 89a2 9c3d
00000160: 032c 903d b2b8 ac3b 8ff8 6abc 6b10 453e
00000170: 11c0 ba3d f3c2 0b3e f445 b33e 7a60 203e
00000180: 6166 503e d11e 57bd 0ed2 9a3d 7c09 0abd
00000190: 0b44 0ebd 7c02 90be a4f1 693d 7176 81bd
000001a0: 6c9f f23d bd65 3cbe 0cbd dd3d 3bfb 17be
000001b0: 03c4 64bd ab3f 8abc 4315 913c f248 843d
000001c0: 87a8 49be fdbe 143e d261 c53b 4c36 8cbb
000001d0: 16cc d23d 496e d3bd 6734 73bd 459e 523e
000001e0: f79a 8f3d e9bc 81bd bfff 0ebd 0e6c 343e
000001f0: 5c72 c03c e7d2 a13d 3b59 8fbc 93dd 963d
00000200: 28f0 2c3d 1cd2 8cbb c246 2e3d bdce 43bd
00000210: 442b 953d ea23 86bd f03e c2bc 790f 47bd
00000220: c42a b03d 37ff dc3d ace8 ea3c 11db 60bd
00000230: bff1 82bd eb37 d93d 5688 e43c 0e84 d53d
00000240: 9fe9 5d3c b74f 84be 1c59 44be c7a1 9b3d
00000250: 2511 aabd ccf9 03be d5f0 593d c301 bd3e
00000260: 2777 7b3e a7b3 4e3e aafb a13d 3335 08bd
00000270: 60cb 8f3d b7e4 953e ba3b 7d3e 1a7e d23d
00000280: 5433 a53d 648a 053e 2d4c 383e 9917 a93e
00000290: 7d6f 6f3e a5d2 8f3e 663f 443e 7dbb 713e
000002a0: 6543 0d3e b215 2f3d d6bf 5c3e 5757 53bd
000002b0: bf78 a53d 420b 163e f946 8b3e 1700 543e
000002c0: 7011 65bc e6db b93e 4ec9 2a3e b139 833d
000002d0: 8f5c 9c3e d682 213d c2d8 3f3e 957a aa3d
000002e0: c3e1 8d3e 8779 7a3e 2ff3 663d 8235 a53e
000002f0: bca3 813e 48ba b83d cdfb 23bc 2a7d 0dbd
00000300: 51eb 34bd e76c a63e 02c6 953e ffa3 243e
00000310: 037e 6c3e ad16 4b3e 04e3 463e d9c1 6dbd
0.07403487 0.18418449 0.20532514 0.084408134 0.07589089 0.025618978 0.1402875 0.13826041
0.0767422 0.16281995 0.09752285 0.05452705 0.23148327 0.20122191 0.14018409 0.1745742
0.06322405 0.20883083 0.089491226 0.053530052 0.09982538 0.11727736 0.20796882 0.14708742
0.11410659 0.19908085 -0.003803641 0.41344923 0.08502257 0.024566691 0.24258499 0.18554023
0.26746956 -0.06097226 0.14310679 0.24499628 -0.017671501 0.03316714 0.218673 0.07241824
0.092701524 0.024616169 -0.06316637 0.11663766 0.25804213 0.10649011 0.26828498 0.1828376
0.20713347 0.15887904 -0.06428513 0.24021086 0.2291009 0.12724012 -0.056725387 0.0055974806
0.048097726 0.025018932 0.0982372 -0.019447552 -0.049436733 0.170458 0.1270434 0.099499844
-0.016073897 0.02540817 0.085492656 0.18462256 0.052280776 0.13702421 0.010084391 0.069985375
0.118042 0.044405777 -0.012179867 0.1884907 -0.035686772 0.43625277 0.09903267 0.14934187
0.12533976 0.04757014 0.16401842 0.029348614 0.018659182 0.021547036 -0.08196647 0.076481886
0.070396446 0.005271041 -0.014341488 0.19244544 0.09118665 0.13648586 0.35014307 0.15661803
0.20351554 -0.052519623 0.07559596 -0.03370045 -0.03473286 -0.28126895 0.057115212 -0.06321419
0.118468136 -0.18398185 0.108270735 -0.1484193 -0.055850994 -0.016876062 0.017710334 0.06459226
-0.19693194 0.14525981 0.006023624 -0.0042789336 0.102928326 -0.103237696 -0.059376147 0.20568188
0.07011979 -0.0633486 -0.034911867 0.17619345 0.02349203 0.079015546 -0.017498603 0.07366481
0.04222122 -0.004297508 0.04254795 -0.047804583 0.07283643 -0.06549819 -0.023711652 -0.04859874
0.08601907 0.10790866 0.0286754 -0.054896418 -0.06393766 0.10606369 0.027897041 0.10425578
0.013544469 -0.25842068 -0.19174618 0.07599216 -0.08304051 -0.12888259 0.05320819 0.36915407
0.24557172 0.2018572 0.07909329 -0.03325386 0.070212126 0.29276058 0.24729815 0.10277958
0.08066431 0.13041073 0.17997809 0.33025816 0.23382373 0.28090397 0.1916481 0.23606677
0.1379524 0.0427453 0.21557555 -0.051596966 0.08079671 0.14652732 0.27202585 0.2070316
-0.013981208 0.36300582 0.16678354 0.06407488 0.30539367 0.039431415 0.1873503 0.08324162
0.27711305 0.24460422 0.05638426 0.32267386 0.25320232 0.09019905 -0.010008764 -0.034543194
-0.044169728 0.3250496 0.2925263 0.16078185 0.23094945 0.19832869 0.19422537 -0.058046196

lstm.bias_hh_l0 f4 [200]
00000000: 8d18 9e3d 8549 a63e 0123 033e 8bb6 253e
00000010: f663 06bd 8c08 323e 9bf3 f03d 2446 323e
00000020: 9e57 813e 2ab0 14bc c343 9f3d 4e61 a93d
00000030: 681c 9f3e 1700 703d 0695 463e 4f29 733e
00000040: eeb2 0d3e 33b1 003e 3185 bc3d 2361 5f3e
00000050: 0e6b 6b3d 9398 3d3e d0b7 473e 7418 5d3e
00000060: f2ed 9a3e 2362 ff3c 1c6e e13c 7852 ba3e
00000070: f863 ee3d c692 913e d1c8 653e 58e8 223d
00000080: 7da0 313e 438c 163e e720 293e fecf a13d
00000090: 54cc 87bd ba58 8b3e 2105 5b3e 2f48 193e
000000a0: 77a3 3f3e b4df 64bc 9b16 99bd 5558 663e
000000b0: e3b5 9e3e a686 8f3e 5127 9a3e 9575 403e
000000c0: 9888 fc3d 7820 9a3d a4b6 753c a62b 423d
000000d0: 9e39 8b3e 8ca7 be3b 9f51 c43d 1722 c3bd
000000e0: d59b 27bc 0b40 6a3d 65a1 343e e7e7 c1bc
000000f0: c67d a6bd b344 413e c83e c43d 2912 8e3e
00000100: d556 353e 5745 8f3d e0a5 723c 887c 633e
00000110: cae1 7d3e aade 433e 24e1 953d 2468 abbd
00000120: 0880 c83d 051a 483e 2098 153e 108b 99bd
00000130: bbcd 93bc a5a2 923e 14bb 18bc 5328 2d3e
00000140: 73d7 b63d 518c 6b3e 4bbb 803e a6b0 89bd
00000150: ab7b 653e e1a4 5f3d b934 523d 780d 503e
00000160: efea 3f3e 7e53 e139 92e4 a83d a55c fc3a
00000170: 643b b2bc aecc ee3d a4fe b23e f1f6 37bd
00000180: d341 933e b853 333e 406d 823d 2cb6 7d3d
00000190: f50f d0bd 943f a9be cc66 bb3d 7793 b7bd
000001a0: 3347 873c 4b29 22bc dbfb 1d3e b3c7 39be
000001b0: 5afe 75be 30ce 003e 9875 8a3b 30ca 30be
000001c0: f872 31be 0caa 093d 9339 7b3d 800f 693d
000001d0: f802 07be 8d41 c5bd 2bb2 c13d dfa7 493e
000001e0: 8cd7 ad3c d8e6 37be d064 f33d 6221 a13d
000001f0: e553 1cbc 1c75 9b3e 9605 fa3a b8ff 393d
00000200: 845f 0abd 5818 52bd c48d e6bd 9ddf f23a
00000210: c86a cdbc 6db1 d0bd 299f 06be 7be6 63bd
00000220: 1f65 063d 4a72 133d 3ab1 01be 9ae8 6b3d
00000230: 31fc cbbd f5d8 29bc 2dd7 e4bc 41ce e2bc
00000240: 04b2 0c3e b61a a2be 558d 59be 13bd ffbd
00000250: 889b 313e 3f1f 133d b19a ebbb 2db3 a93e
00000260: 518d a83d 4c07 853e ecda b73b 9a12 30bc
00000270: 57e8 7c3e 4b02 f73d 478f 983e e230 7f3e
00000280: 6f80 cfbc 7e72 9b3d 6c92 e03d f534 e53d
00000290: 866e 1b3d 6224 103e 47f5 ad3d 541e 943e
000002a0: 2b9a 7f3e c091 823c 325e 783d 4de9 123b
000002b0: da8e 863e 0385 5c3e 33bd 823e 9ec1 f53d
000002c0: abcf 50bb a213 f93e 6c65 a43e 3b42 1a3e
000002d0: 4126 823e b7e7 d63d 6ce0 ff3d ffbd babd
000002e0: edbf a43e 750e 6b3e 8ef0 8c3d e05a 833e
000002f0: 1d64 f03d 1657 ba3d 6054 553e 4abe 923d
00000300: cc42 1dbd 94ae 963e 2753 5d3e c4cc 1a3e
00000310: 62b2 d53e 6391 853d b002 003e 5f69 bfbc
0.077195264 0.32477966 0.12806322 0.16182916 -0.032810174 0.17386073 0.11765214 0.17409569
0.2526216 -0.009075204 0.077765964 0.082705125 0.3107636 0.058593836 0.19392785 0.23746227
0.13837788 0.12567596 0.09205092 0.21814398 0.057475142 0.18515234 0.19503713 0.2159136
0.30259663 0.031174725 0.027518325 0.36391044 0.11640161 0.28432292 0.22439887 0.03977236
0.17346378 0.14701943 0.16516457 0.079009995 -0.06630769 0.2721613 0.21388675 0.14968942
0.187147 -0.013969351 -0.07475015 0.22494633 0.30998144 0.28032416 0.3010812 0.18794854
0.12330741 0.07525724 0.014997158 0.047404908 0.27192396 0.005818313 0.095858805 -0.095279865
-0.010230024 0.057189982 0.17639692 -0.02367015 -0.08129458 0.18873863 0.09582287 0.2774823
0.17708905 0.069956474 0.0148100555 0.22215474 0.24793163 0.19127908 0.07318333 -0.083694726
0.09790045 0.19541176 0.14608812 -0.07497227 -0.018042436 0.28639713 -0.009321947 0.16909914
0.089278124 0.23002745 0.25142893 -0.06723146 0.22410457 0.0546006 0.05131981 0.20317638
0.18741964 0.0004297755 0.08246721 0.0019253684 -0.021756835 0.11660133 0.349599 -0.044913236
0.28761157 0.17512405 0.06368494 0.06194131 -0.101592936 -0.3305632 0.09150466 -0.089636736
0.016513443 -0.00989754 0.15428106 -0.18142585 -0.24022809 0.12578654 0.004225444 -0.17264628
-0.17329013 0.033609435 0.061334204 0.056899548 -0.13184726 -0.096316434 0.09457811 0.19692944
0.021220945 -0.17959154 0.11884463 0.078676954 -0.009541486 0.30362785 0.0019075151 0.045409888
-0.033782497 -0.051292747 -0.112575084 0.0018529777 -0.025075331 -0.10190091 -0.13146652 -0.055639725
0.03281128 0.035997666 -0.12665263 0.057594873 -0.09960211 -0.010366668 -0.027934635 -0.02768624
0.13739783 -0.31661004 -0.2124532 -0.12487235 0.17344487 0.03591847 -0.0071900715 0.33144513
0.08230079 0.2598213 0.0056108143 -0.010746622 0.24698006 0.12060984 0.29796812 0.24920991
-0.025329797 0.07590197 0.10965428 0.111917414 0.0379472 0.14076379 0.084940486 0.2892939
0.24961154 0.01593864 0.060636707 0.002241689 0.26280862 0.21535115 0.25534973 0.1199982
-0.003186206 0.4864779 0.3210863 0.15064327 0.2541981 0.10493415 0.12493977 -0.0911827
0.32177678 0.22954734 0.0688182 0.2565527 0.11737845 0.090986416 0.20832968 0.07165201
-0.03839378 0.29430068 0.21613751 0.15117174 0.41737658 0.06521871 0.12501025 -0.023365675

lstm.weight_ih_l1 f4 [200, 50]
00000000: 9eaa e43d ae6f a13d 0c07 233d 0850 643d
00000010: 9997 80bd 6c8d f7bc 1e52 31bd 1207 f83d
00000020: 13d4 9bbd ec51 353d 026c 9cbd 77d1 003e
00000030: f8cb 9cbd ce51 e53d a0d3 213d 0279 b53d
00000040: b0bc 4a3d b066 0b3d 8cd2 cfbd 250d 96bd
00000050: 0a49 65bd c4a4 7cbd 90c4 59bd 28d4 c63c
00000060: 7c61 193d 1024 203d a86e 7abd cc78 c73d
00000070: 8ee1 b83d 5c8d e1bc 30d4 5b3c d953 0c3e
00000080: 9e4e c63d 9a2c 54bd e8dc e93c a7fe 0e3e
00000090: 64b3 f3bc fb34 043e fe8f ed3d b457 0c3d
000000a0: e148 0fbe 4224 ce3d 8805 93bc 7066 cf3c
000000b0: 7535 8bbd 3ec3 e53d e039 2fbc 0e75 01be
000000c0: 0829 b33d 9d97 073e c072 88bd f40d 10be
000000d0: c076 723c b45e 273d f0de 763c 26b1 d9bd
000000e0: 207a 99bb 20e8 ef3c a0e9 7f3d 23c3 96bd
000000f0: 50af a7bd 36d6 a1bd 52c6 15bd fcde 91bc
00000100: 559f aabd e620 b93d 5878 07be 886e b6bd
00000110: c9f3 81bd 1a05 03be 6ee0 f83d 73cd 093e
00000120: a470 cfbc fef4 4dbd 444c b33d c93e 083e
00000130: 805b c0bb 4269 863d f00a 233d 4c4a 4d3d
00000140: b2ac e93d 1969 87bd 5cf0 443d a083 c7bd
00000150: 68f6 01be 678e 083e aaef 97bd 7575 91bd
00000160: 4d61 a1bd 3c1e 2f3d 78b4 f1bd 8ca6 fabc
00000170: c058 edbd 187c a5bd 60f4 8e3d 55aa 013e
00000180: 008b 663a 4853 8abd de6b ab3d 3e1b 65bd
00000190: 007c ebba e0d3 e1bb 16bc 04be 13e5 e7bd
000001a0: 6c20 373d c044 1a3c d9d0 95bd 2045 e93c
000001b0: 0cd2 a4bc 00bc 2439 ccf8 cbbd dceb 263d
000001c0: 746b 803d 902e 64bc 38e7 133d 360e 873d
000001d0: 305a a3bc 301b 72bc d0a9 1bbc 46b9 93bd
000001e0: c0ec c73d 1569 fcbd 606d eb3c dcdb 77bd
000001f0: f8c1 e33c c0fd 19bb 5ac8 22bd 0c3f 57bd
00000200: 5a56 d2bd d0ff 413c e057 933c 2635 993d
00000210: a08d 13bd e696 c4bd e074 d23c acd5 7bbd
00000220: 6329 0cbe d8fe 933c c098 e33b 489c 24bd
00000230: f01b 1c3d 6092 5fbc bc7c 8b3d 94bc 683d
00000240: 3448 553d 1945 06be aee2 3dbd 5e56 11bd
00000250: 4061 013d 1e27 c63d ac99 98bc daed 6cbd
00000260: b204 e1bd 9066 b1bd 3449 bbbc 8887 a23c
00000270: 4cf1 3a3d e8e1 db3d 93ed 013e 90fd 82bc
00000280: 9014 b8bc e8c7 f23c 30f6 3cbd 8071 3f3c
00000290: 2c3b 4f3d 0a64 f43d dcc1 343d b7e2 0c3e
000002a0: 386b fdbc f43e bfbd 748d 69bd 7a5e b73d
000002b0: 30e9 a73d 9a77 d3bd ec03 3fbd 2edc 923d
000002c0: 44b9 02bd b6f3 b83d 7085 7fbc 4c00 413d
000002d0: ce30 b0bd c852 13bd 3380 093e 5e64 fb3d
000002e0: a222 33bd ba15 a2bd f044 c93c 2ef8 47bd
000002f0: 50d4 763d 2f0c 95bd d46d 323d fdfa 8cbd
00000300: 7bce c6bd c8e1 913c 0b94 01be 4cd7 46bd
00000310: 527b a23d 3d22 053e 82f6 f53d c0a6 cb3d
00000320: f5ad c3bd e89c f23c 5057 ce3c e020 74bd
00000330: 667b 02be 29bc 0f3e c699 e53d 103c a83c
00000340: 6900 093e 02f2 c33d d935 e3bd 9844 9e3c
00000350: 1436 a2bd c257 bcbd 6013 cd3b b0f5 d93c
00000360: 2626 863d d928 9ebd 1b82 dcbd 305f 533d
00000370: dc2f 9f3d a886 223d 72eb 15bd 10bb 4b3c
00000380: a0b1 4dbc 97a4 0abe 809b 6c3b b895 9e3c
00000390: d809 cebd 5687 c5bd ce3d e13d bfa7 d5bd
000003a0: 6e7a 51bd c094 943c 9076 adbd 5e92 a8bd
000003b0: e0b8 783d a04b 0abc deda fe3d 9ac9 a43d
000003c0: 9048 dcbd 62a6 fa3d 3832 f5bc b04a d93d
000003d0: 04cd 8ebd 583f fa3c 0a2d ce3d 1090 37bc
000003e0: bf64 0a3e ca05 84bd 2ca2 b9bc 1775 ecbd
000003f0: 4c4f b3bd d453 a53d 68a8 98bd 9265 67bd
0.11165355 0.07882629 0.039801642 0.055740386 -0.06278915 -0.030218802 -0.043291204 0.121107236
-0.07608809 0.04426758 -0.07637788 0.12579904 -0.076560915 0.11197244 0.039508462 0.08860971
0.049496353 0.034033477 -0.101475805 -0.07326726 -0.05597786 -0.06168057 -0.053165972 0.024271086
0.037446484 0.039096892 -0.061140686 0.09739837 0.09027396 -0.027533226 0.013417289 0.1370386
0.09682964 -0.051800348 0.02854772 0.1396433 -0.029748626 0.12910835 0.1159973 0.034263328
-0.13992645 0.100655094 -0.017946973 0.0253174 -0.067973055 0.1121888 -0.010694951 -0.12642309
0.087480605 0.1324143 -0.06662512 -0.14067823 0.01479882 0.0408618 0.015067801 -0.106294915
-0.004683748 0.02928549 0.06247866 -0.07361438 -0.08187735 -0.079021856 -0.036566086 -0.017806523
-0.083311714 0.09039478 -0.13229501 -0.08907801 -0.063453265 -0.12794915 0.121521816 0.13457279
-0.025322266 -0.05028247 0.08754781 0.133052 -0.0058702826 0.06563045 0.039805353 0.050119683
0.11409892 -0.06611843 0.048080787 -0.09741902 -0.12691653 0.13335572 -0.07418759 -0.07102481
-0.07879887 0.042753443 -0.11802 -0.030596994 -0.11589193 -0.0808031 0.069802046 0.12662633
0.00087945163 -0.06754166 0.083701834 -0.055934183 -0.0017966032 -0.0068917125 -0.12962374 -0.11322989
0.044708654 0.009415805 -0.07315225 0.028475344 -0.02011969 0.00015710294 -0.099595636 0.040752277
0.06270495 -0.013927117 0.03610918 0.065945074 -0.019940466 -0.01477699 -0.009500936 -0.072130725
0.09761953 -0.1232473 0.028738678 -0.06051241 0.027802452 -0.0023497194 -0.03974185 -0.05255036
-0.102703765 0.011840776 0.017986238 0.074808404 -0.036023736 -0.09599094 0.025690496 -0.06148307
-0.13687663 0.018065855 0.0069456995 -0.040188104 0.03811258 -0.013645738 0.068109006 0.056820467
0.05207081 -0.13112296 -0.046358757 -0.035482757 0.031586885 0.0967543 -0.018627964 -0.05784402
-0.10987224 -0.0866214 -0.022862054 0.019840017 0.045640275 0.107364476 0.12688284 -0.015990049
-0.022470742 0.029636338 -0.04613322 0.011684775 0.05059354 0.119331434 0.04413019 0.1375836
-0.030934915 -0.09338179 -0.057019666 0.08953567 0.08198774 -0.103255466 -0.0466346 0.07170902
-0.031914964 0.09030859 -0.015595779 0.047119424 -0.08603059 -0.03596762 0.1342781 0.12275003
-0.0437342 -0.079143 0.024569005 -0.048820667 0.06026107 -0.072777145 0.04356177 -0.0688381
-0.09707352 0.017807856 -0.1265413 -0.048545167 0.07933678 0.13001342 0.12009908 0.099439144
-0.09554664 0.029615834 0.025188118 -0.059601665 -0.12742385 0.14036621 0.112109706 0.020536453
0.13379063 0.09567644 -0.11094255 0.019319817 -0.07920471 -0.09196426 0.006258413 0.02660641
0.06550245 -0.07722635 -0.10767003 0.05160445 0.077728 0.0396792 -0.03660149 0.012434736
-0.012554556 -0.13539349 0.0036103427 0.0193585 -0.10060471 -0.09644954 0.109981164 -0.10432386
-0.05114215 0.018137336 -0.084698796 -0.08231042 0.060723186 -0.008440882 0.12444089 0.08046265
-0.10756028 0.12238766 -0.029931173 0.10609949 -0.069726974 0.030547783 0.10067184 -0.011203781
0.13514994 -0.06446417 -0.022660337 -0.115457706 -0.08755359 0.080726296 -0.07453996 -0.05649335

lstm.weight_hh_l1 f4 [200, 50]
00000000: d4a6 4dbd 64ac bdbd 52a1 bcbd a3da 8cbd
00000010: c61a aabd d459 e2bd 80ee 143d 4077 be3c
00000020: 3c1a 9e3d d66e 3bbd 8a71 fa3d bca4 a9bc
00000030: 4856 9ebd e813 edbd 0023 403a f0e2 a53d
00000040: 60d3 933b e65f bb3d c448 f3bd 080d bf3d
00000050: 6c60 5dbd c289 dc3d 78d8 863c 0034 b5bd
00000060: 0ec5 d63d d411 3f3d aa8a d73d 1b5b a0bd
00000070: d04b b23d 9c6d c03d 005f 813b 823d f0bd
00000080: caf0 df3d 2a2d 53bd 5f71 ddbd 02ec 0fbe
00000090: 1ccb d03d d39c 0bbe 9cff 1bbd 24a7 c9bc
000000a0: a0ef 0f3d 04ea 093d f2ee fb3d e8e3 a9bc
000000b0: 2e10 913d f2f5 ce3d 9832 9e3c d263 1abd
000000c0: 204f 9abd 2173 b3bd 14d3 f9bd 94e2 b43d
000000d0: 3ebb a23d b0de 1dbd ae58 eebd 1784 0ebe
000000e0: 2d45 07be 70d1 a23c 3020 903d 269c e43d
000000f0: 5e99 ec3d 3e4a 70bd c885 32bd 8680 ed3d
00000100: 1aad a9bd 9a52 b5bd fdcd e4bd d0e4 64bc
00000110: 34eb 4b3d a08c 5bbc 1c27 943d 5eba aa3d
00000120: e77f 87bd d0bc bcbd dc15 d93d 0cf0 dd3d
00000130: 663b fa3d 0573 06be 3819 903c 1408 8d3d
00000140: d6fd 5dbd 40db b23b a0dc fe3c 4cea 30bd
00000150: 0e8d 90bd b661 bc3d 06e3 803d b090 21bc
00000160: 8f0d 0cbe f8c8 c83c b742 003e 60d8 04bd
00000170: ec60 69bd 14f3 c3bc f4b7 6cbd 7445 113d
00000180: 6bda 083e 6c9e d83d 9a97 933d 1039 a3bc
00000190: b672 963d 7282 b6bd 017a 10be 0eb9 a63d
000001a0: 6330 07be be4e babd 8e47 f83d 8ad3 b8bd
000001b0: c8e2 4abd 0086 4e3c 38c3 86bc 700e 343c
000001c0: e872 ddbc 1f6e 8fbd 7c1a 88bd 607a dd3c
000001d0: 7064 3f3c 1814 cabd 0081 963a 00be bcbb
000001e0: f0fe 2ebc aabe cc3d a719 083e 60a5 bdbb
000001f0: 2801 bdbd 909e dfbd 2e93 bb3d 6049 563d
00000200: 2a04 fe3d 1a36 5dbd a8d8 203d 70b4 f9bc
00000210: cf50 013e 11df 0abe a44a a73d d6d4 0bbe
00000220: 9af6 fd3d b053 243d ebda 073e 60ed dbbb
00000230: 189e 1dbd f074 1d3d b8c2 21bd e2f1 b7bd
00000240: 15cc b6bd 727c ac3d 15f4 03be 00bb 9c3b
00000250: 5dc7 8abd d0b6 473d 8830 9dbd 7028 b8bd
00000260: 23b5 053e 742b 4bbd e077 16bd 1ad8 9b3d
00000270: 64c5 adbd 556d 0e3e 44dd 89bd b03b d43c
00000280: e91f 93bd 66da 0abe 59b0 093e c6a5 923d
00000290: 60c2 d63d e87b 1fbd cc8d d33d e171 0d3e
000002a0: f8bd a93c 12f9 8ebd 7079 713d e8d6 833d
000002b0: e1fe 053e fea1 59bd 6057 d63b 805f 50bb
000002c0: 83cd 08be e866 c0bd 3906 82bd acf1 6ebd
000002d0: 60a0 ae3d 442a 2b3d 40b3 a8bc b505 f2bd
000002e0: a471 15bd 26aa e43d 8fb7 8bbd 1bf9 eebd
000002f0: b8b8 663d 3177 073e e0de cabd 3c7a 5d3d
00000300: c05f eebd fce0 0fbd 4772 08be 9314 c6bd
00000310: 0061 b53d 529b cd3d 2c57 683d f663 bebd
00000320: 6086 ad3b 886c 07be 24c3 11bd 38b6 633d
00000330: 26e8 cabd c265 2fbd 62ca e6bd 6cc7 4d3d
00000340: 6aa2 8f3d 4766 8abd f001 8bbd a029 af3b
00000350: 47cc 0f3e 42ae 10bd cebd 2ebd 92ac a43d
00000360: 8e92 e6bd 43cf 0c3e eeb1 ec3d b0ef 843c
00000370: ba89 98bd 1882 023d a8fc c33c 6877 1ebd
00000380: 30fb 14bd febb b03d ca22 4fbd 502b 653d
00000390: 227e b13d a8e2 abbd 5caf 58bd 7058 49bc
000003a0: bc61 ecbc 58f2 263d 1a9a 50bd 7cf6 febc
000003b0: 64c3 143d 9c51 6f3d d8c2 fabd bc29 c7bd
000003c0: af90 8ebd c032 f33b 2ca7 aabd e409 57bd
000003d0: 7f71 91bd 4002 79bb 6c9d be3d f619 e4bd
000003e0: 3801 b13c 7844 12bd 4021 393b 0e9b a63d
000003f0: 14bf 273d 403f 833b a887 473d df76 0a3e
-0.050207928 -0.092613965 -0.09210457 -0.06877639 -0.08305888 -0.110522896 0.036360264 0.023250222
0.077198476 -0.04576 0.12228687 -0.020708434 -0.077313006 -0.115760624 0.0007329434 0.080999255
0.004511282 0.091491506 -0.11879113 0.093286574 -0.054047033 0.10768463 0.016460642 -0.08847809
0.10486804 0.04664786 0.10524495 -0.07829877 0.08705866 0.09395906 0.0039480925 -0.11730482
0.10934599 -0.051556744 -0.108126394 -0.14054874 0.1019499 -0.13634042 -0.038085565 -0.024615832
0.035140634 0.03367044 0.123014346 -0.020738557 0.07083164 0.10105504 0.019311234 -0.037692852
-0.07534623 -0.087621935 -0.12198463 0.08832279 0.0794587 -0.03854245 -0.11638008 -0.13917576
-0.13209982 0.019875258 0.07037389 0.111625955 0.1155269 -0.058664553 -0.043584615 0.115967795
-0.0828497 -0.088536456 -0.11172102 -0.013970569 0.049784854 -0.013400227 0.07234022 0.08336328
-0.06616192 -0.092157006 0.105998725 0.10836801 0.122183606 -0.13129814 0.01759015 0.068863064
-0.054197155 0.0054582655 0.031111062 -0.043192193 -0.07058154 0.091983244 0.06293301 -0.009861156
-0.13677047 0.024509892 0.1252545 -0.032432914 -0.056977198 -0.02391962 -0.05779262 0.035466626
0.1336457 0.105770916 0.0720665 -0.01992467 0.07346098 -0.08911599 -0.14109041 0.08140765
-0.13202052 -0.0909705 0.12123023 -0.09024723 -0.04953268 0.01260519 -0.01645051 0.01098977
-0.02703233 -0.07003426 -0.066456765 0.027035892 0.011681661 -0.09867114 0.0011482537 -0.0057599545
-0.010680899 0.09997304 0.13291036 -0.0057875365 -0.09228736 -0.10918915 0.09158932 0.05231607
0.12403138 -0.054006673 0.03926912 -0.030481547 0.12628482 -0.13561656 0.081685334 -0.13655409
0.12400551 0.040118873 0.13267104 -0.006711647 -0.038480848 0.0384416 -0.03949234 -0.08981682
-0.08925644 0.084221736 -0.12886079 0.0047830343 -0.06776307 0.048758328 -0.07675272 -0.08992088
0.1305738 -0.049601987 -0.036735415 0.076095775 -0.08484915 0.13908894 -0.06731656 0.025907367
-0.07183821 -0.13559875 0.13446178 0.07160525 0.10486293 -0.038936526 0.1032978 0.13812973
0.020720467 -0.069811 0.058953702 0.064374745 0.1308551 -0.053133003 0.0065411776 -0.0031795204
-0.13359646 -0.09394628 -0.06348843 -0.058335945 0.08526683 0.041788355 -0.020593286 -0.11817495
-0.03648533 0.11165266 -0.068221204 -0.11668607 0.056328505 0.13229062 -0.09905791 0.05407165
-0.116393566 -0.03512667 -0.13324843 -0.09671893 0.08856392 0.100393906 0.05672376 -0.0929641
0.0052955598 -0.13224995 -0.03558649 0.0555937 -0.0990756 -0.042821653 -0.1126907 0.05023901
0.070134 -0.06757789 -0.06787479 0.0053455383 0.1404277 -0.035322435 -0.04266148 0.08040728
-0.11258422 0.13750939 0.11557375 0.016227573 -0.07448144 0.03186235 0.023924187 -0.038688093
-0.036372364 0.08629607 -0.050570287 0.05594951 0.08666636 -0.083928406 -0.05290161 -0.012289152
-0.028855197 0.04075846 -0.050928213 -0.031123392 0.03631915 0.05842744 -0.12244195 -0.09724757
-0.0696119 0.0074218214 -0.08332667 -0.052499667 -0.07101726 -0.0037995726 0.093073696 -0.11137764
0.021607026 -0.03570983 0.0028248578 0.08135043 0.04095371 0.0040053427 0.048713356 0.13521908

lstm.bias_ih_l1 f4 [200]
00000000: 9cb4 9dbd 505f 47bc 36cf da3d 32ed eb3d
00000010: b8c7 39bd 2ae7 ecbd 6200 a8bd d08a 1c3d
00000020: 1e6a 993d 9e71 ddbd cef9 ea3d 8c50 6fbd
00000030: ce28 5fbd 521a e03d 9fac fcbd 6c32 5dbd
00000040: 5ada d63d 0a37 62bd 52c0 2abd 50d8 743d
00000050: c453 a03d 1320 04be a6fb 9bbd fc5e 1e3d
00000060: 98fa 9dbd 3e80 97bd 3927 b3bd 2298 ce3d
00000070: d82e da3d f0e7 08bc 9003 913c 1ed8 c3bd
00000080: 7070 15bd 801b 4b3b e2b6 f33d 04bf 66bd
00000090: fa21 e13d 70d9 2c3d c437 89bc 8d52 9ebd
000000a0: 5815 c1bc cb26 a2bd 3c31 383d 9093 803d
000000b0: 0086 a639 aa23 e73d efd5 0b3e 00c4 663d
000000c0: d091 303c f6e3 0bbe 6217 65bd 6edd f53d
000000d0: d896 d6bd d7f3 00be 06d3 ee3d 88fa ea3c
000000e0: d609 d2bd 96de 71bd 1225 eb3d c52d e2bd
000000f0: e25a dfbd 005c f73b 524d e33d cece d13d
00000100: 3320 a1bd f404 77bd d857 16bd 9ce6 0abe
00000110: bb6a 0bbe 000e 47bc 6ae8 813d 1ad7 a93d
00000120: 8c76 acbd 5690 ac3d 705c cbbd d99b 0c3e
00000130: 6073 6a3d 59d4 9fbd 3042 44bd e4ec a9bd
00000140: 8876 9cbc 6a7b c63d 3008 933c 802d 85ba
00000150: 281a 293d 6581 053e fe4c a8bd ae4c e93d
00000160: 56c6 6bbd 50a5 1bbd 5289 f03d f67f df3d
00000170: 2846 5b3d 528e 58bd 6558 90bd 00d9 cf3c
00000180: 1dae a6bd a4d7 c03d 90cf 163d f8e5 043d
00000190: 1e5b f43d 3a68 f73d a45d b7bd 8448 b3bd
000001a0: 99e7 a0bd 7c83 413d 94e6 66bd 243d 543d
000001b0: 5990 f9bd bbe7 d4bd c2c7 a23d 2c55 12bd
000001c0: 20d5 97bc d2dc aabd 3c3d 673d c6c8 a23d
000001d0: 5a57 08be ea17 c4bd 5872 5d3d 5010 3e3c
000001e0: ae71 f73d 54b6 7e3d f086 66bc 98ed cfbd
000001f0: 3e1b afbd 22bf ccbd 0ef6 f43d 3129 073e
00000200: 684e e8bc d4b4 acbd cae6 de3d 6d6c 0fbe
00000210: 54ed 93bd d024 82bc 4061 8abb e8c8 923c
00000220: 3480 4b3d a46e 843d 4472 b43d 15b8 08be
00000230: 1061 c83c 6872 a73c d84f 8e3c 902c 853c
00000240: 0098 43bd 00ae b33a 36c3 ce3d 3b7d 003e
00000250: f058 23bc c059 e0bd c091 3b3b 0c02 b63d
00000260: 48d8 9a3d 30ba 333d 002b 50bd d2a9 5bbd
00000270: 9253 b0bd 60d9 69bc 5e2a d23d 1821 6cbd
00000280: cd90 073e 610e f0bd a022 3a3d 08ca b7bd
00000290: 4c4a 963d 0858 d23d ac18 5d3d 40ba ad3d
000002a0: 8840 4e3d 982c d83d ab33 e8bd e4d1 c4bc
000002b0: 40d5 d2bc 48fc 613d 929c ef3d b47b abbd
000002c0: 5c5b 713d cdac 063e c61c 873d 7c6d 91bd
000002d0: d88f 1e3d 7ea2 823d 3068 02be b06f 1f3c
000002e0: d13c f4bd 001d 0ebb 4062 6f3c 7751 03be
000002f0: 51dd 0d3e 0012 643a 9218 77bd 3063 42bc
00000300: a6d3 9fbd 9657 d4bd 80d8 843c 502d 403c
00000310: 00d4 8e3a 1c17 393d f074 d1bc 5fdb 0dbe
-0.07700464 -0.01216872 0.106840536 0.11519851 -0.045356482 -0.115675285 -0.08203198 0.03821832
0.07490943 -0.108126864 0.11473428 -0.058426425 -0.054482274 0.1094252 -0.12337612 -0.054003164
0.10490866 -0.05522827 -0.041687317 0.059776604 0.07828477 -0.1290286 -0.076163575 0.038664803
-0.077138126 -0.07397507 -0.087477155 0.10087611 0.10653466 -0.008356079 0.017701894 -0.095627055
-0.036484182 0.0030991733 0.119001165 -0.05633451 0.10992809 0.042199552 -0.016750224 -0.07730589
-0.023569748 -0.079175554 0.04496883 0.06278145 0.00031761825 0.11286099 0.13655828 0.056339264
0.010776952 -0.13661179 -0.055930503 0.12005125 -0.1047799 -0.12593018 0.11661343 0.028683916
-0.10255782 -0.059050165 0.1148168 -0.11043886 -0.109060064 0.007548809 0.11098732 0.10244523
-0.0786747 -0.060307458 -0.036704868 -0.13564533 -0.13614933 -0.012149334 0.063431576 0.082929805
-0.084210485 0.084259674 -0.099297404 0.13731326 0.057238936 -0.07804174 -0.047914684 -0.082971364
-0.019099489 0.09691508 0.01794824 -0.0010160655 0.04128471 0.13037641 -0.0821781 0.113915786
-0.057562195 -0.03799945 0.11744942 0.109130785 0.053533703 -0.052870102 -0.0704811 0.025372028
-0.08138678 0.0941613 0.03681904 0.032445878 0.11931442 0.120804265 -0.089534074 -0.08754066
-0.07856674 0.047244534 -0.05637224 0.05181612 -0.12185735 -0.103957616 0.07948257 -0.035725757
-0.018534243 -0.083428994 0.056454882 0.07948451 -0.13314572 -0.09574874 0.054064125 0.011600569
0.120822296 0.0621856 -0.014070258 -0.10152739 -0.08550118 -0.09997393 0.11960994 0.13199307
-0.0283577 -0.08432928 0.10883863 -0.14006205 -0.07223001 -0.015886694 -0.004223019 0.017918065
0.04968281 0.064664155 0.08810857 -0.13351472 0.024460346 0.020440295 0.017372057 0.0162566
-0.04775238 0.0013708472 0.10095827 0.12547772 -0.009969935 -0.109546185 0.002862081 0.08887109
0.075607836 0.043878734 -0.050822258 -0.05362875 -0.0860969 -0.014273018 0.10261987 -0.05764875
0.13238831 -0.117214926 0.045443177 -0.08974081 0.0733839 0.10270697 0.053978607 0.0848279
0.05035451 0.105553806 -0.1133798 -0.024025865 -0.025736451 0.055172235 0.11699785 -0.08373204
0.058925018 0.13151856 0.06597285 -0.071009606 0.0387114 0.06378649 -0.12735057 0.009731218
-0.11925662 -0.0021684766 0.014610827 -0.12824045 0.13853957 0.0008700192 -0.060326166 -0.011864468
-0.078040406 -0.10368268 0.016216516 0.011729553 0.0010896921 0.045188054 -0.025568455 -0.13853215
