static/models/torch_domain.pth (torch_old, 173848 bytes, 11 tensors)

word_embeddings.weight f4 [389, 20]
000000 1a 1e d0 bf 38 b5 69 bf 9c 2b 2d bf 5f 44 d9 bf
       -1.6259186 -0.9129214 -0.6764467 -1.697399
000010 fe 21 af bd 72 50 27 bf 71 e7 87 bf b6 52 dc bf
       -0.08551405 -0.65357125 -1.0617505 -1.7212741
000020 e4 98 53 bf c9 b9 9e 3e 7f 95 65 bf 66 d1 ac be
       -0.8265517 0.31001118 -0.8968124 -0.33753508
000030 a2 12 52 be c1 94 d9 3f 35 36 93 3e 8e bc f1 3e
       -0.2051492 1.6998521 0.28752294 0.47214168
000040 1c 69 43 bf 6c 75 9b bf 5c 31 3d 3f 56 10 58 3e
       -0.7633226 -1.2145209 0.7390344 0.21099982
000050 04 9e 5d 3f 06 45 7a 3e 8f b4 29 bf c1 ab 4e 3f
       0.8656924 0.24440393 -0.66291136 0.80730826
000060 df 03 8d 3f 94 28 34 be 38 b7 0f c0 89 25 b9 bf
       1.1016806 -0.17593604 -2.2455578 -1.446458
000070 f6 7d 7a 3d 81 24 1e bf 4e 4e 4c bf 3c c8 06 be
       0.061155282 -0.6177445 -0.79806983 -0.13162321
000080 67 8e f0 3f d4 b9 93 bd 9e 8e 21 3e 24 01 46 bf
       1.8793458 -0.07213178 0.1577706 -0.7734549
000090 78 d5 4b 3e d6 32 3b 3d bd a0 1c 3e 2c 8c f3 be
       0.1990565 0.045702778 0.15295692 -0.4756788
0000a0 dc cb db bd 1e 12 96 3e 8c 15 24 be 8f 5c f4 bc
       -0.107322425 0.29310697 -0.16023844 -0.029829292
0000b0 b1 1d 17 40 1b 4e 85 bf b3 86 c9 3f 4e d6 20 bf
       2.3611872 -1.0414461 1.5744232 -0.62827003
0000c0 87 db 6c bf 8c c3 0b 3f 99 fe 78 3d 91 0c df be
       -0.9252247 0.54595256 0.06078968 -0.43564275
0000d0 11 9e 43 3f b5 d1 e4 3e 93 66 95 3f ac f0 00 40
       0.76413065 0.44691244 1.1671928 2.0146894
0000e0 a9 5a 08 3e b9 25 70 3f 58 6d 3b be 9b c9 23 bf
       0.13315834 0.9380756 -0.1830343 -0.639795
0000f0 20 67 c5 3f 1b d8 5e bf b7 64 55 c0 ed 3d 40 bf
       1.5422096 -0.870485 -3.3342721 -0.7509449
000100 68 e6 b7 bc 99 57 83 bf 73 51 18 bf 05 94 80 bf
       -0.022448733 -1.0261108 -0.5949928 -1.0045172
000110 61 ac 53 be b8 92 9a bb f9 43 d5 3f aa 7c 45 3c
       -0.20671226 -0.0047171973 1.6661369 0.012053648
000120 fa d4 33 bf b0 31 37 be 7b 55 7e bf e9 30 55 bf
       -0.7024685 -0.17890048 -0.9934918 -0.83277756
000130 16 bc ef be 2f 5a 0f bf 3a 03 cc 3e c1 28 7a bf
       -0.46823186 -0.55996984 0.39846212 -0.97718436
000140 44 cd e3 be 12 22 ea 3d e7 99 32 bf 75 a9 40 3f
       -0.44492543 0.1143228 -0.69766086 0.7525857
000150 8f 04 b1 bf 66 1c 04 bf 43 3c 26 3e d1 48 3b be
       -1.3829516 -0.5160583 0.16233926 -0.18289496
000160 d8 a1 9e 3e e6 3f ff be cb 1f 84 bf af d2 45 3f
       0.30982852 -0.49853438 -1.0322202 0.772746
000170 90 fe 8c bf 2d a9 e1 be 71 4e 90 3e 64 b3 ff 3f
       -1.1015186 -0.44074383 0.28184846 1.9976621
000180 3a 6d 26 3f 73 12 96 3f 30 79 4b 3f 09 af 74 bf
       0.65010417 1.172438 0.7948179 -0.9557958
000190 78 04 a9 3f e6 af 5c bf 45 02 80 bf ca 93 88 3f
       1.3204489 -0.862059 -1.0000693 1.0670102
0001a0 3f 51 ae 3f fc 52 1a 3f 84 81 dd bd 93 a5 62 be
       1.3618544 0.60282874 -0.10815719 -0.22133474
0001b0 13 82 0c c0 67 6d 19 bf 4e e5 c4 bf 62 55 9a bf
       -2.195439 -0.5993256 -1.5382478 -1.2057307
0001c0 0a 23 61 3f 5f 65 05 bf df 44 aa 3f 1e ad 50 3f
       0.8794409 -0.52107805 1.3302268 0.81514156
0001d0 89 20 2f 3e db b2 ad 3e e4 aa 0f 3f e4 91 bb be
       0.17102255 0.33925518 0.56120133 -0.36634743
0001e0 50 0c 24 40 4e 47 71 be 33 30 6d bc 20 b8 ed 3f
       2.5632515 -0.23562357 -0.014476824 1.8571815
0001f0 7a 0d fd bf 7c 7f e5 3f 13 bb d4 3d 3d 8e af 3e
       -1.9769738 1.792953 0.10387244 0.34288207
000200 12 91 37 3f 3f 17 e3 bf 44 df b1 3e 90 0c 9a 3f
       0.71705735 -1.7741469 0.3474065 1.2035084
000210 31 0e 99 be 1c f6 e0 bf 07 58 23 3f 25 84 4e bf
       -0.2989364 -1.7575107 0.63806194 -0.80670387
000220 0f 21 cf bf 93 99 ef bf 5a 9b 0b 3f e5 ed 29 3f
       -1.6181964 -1.8718742 0.5453392 0.66378623
000230 d5 e7 12 40 08 bd 2b 3f 2f 3f db 3f 5c 84 e7 bf
       2.2954 0.67085314 1.7128657 -1.8087268
000240 a8 1b ae bf 36 ab 7c bf 38 90 c1 3f a4 99 23 3f
       -1.360219 -0.9869875 1.5122137 0.6390631
000250 ba 60 ed 3e 3b bf d8 be 9a 77 0b 3f 61 f4 c6 bf
       0.4636286 -0.42333397 0.5447937 -1.5543329
000260 ef 0e 06 3f dd 65 ea 3d 1f 81 8d 3e b3 25 a8 3f
       0.52366537 0.1144521 0.27637574 1.3136505
000270 c1 7e de 3f 6d ec ec 3f 8b b3 34 bf 0f 9b 24 40
       1.7382432 1.8509651 -0.7058646 2.571964
000280 a3 e3 86 3e 1f 7b c4 be be 42 58 bf dd a5 f4 be
       0.26345548 -0.38375184 -0.8447684 -0.47782794
000290 f1 02 28 bf 77 65 6f bf 02 1c 62 3f 12 a6 79 3f
       -0.6562949 -0.935142 0.88323987 0.9751903
0002a0 95 9f 6b 3e 3f c2 cc 3f 9a dc 99 3f 6e be f4 bf
       0.23010094 1.5996779 1.2020447 -1.9120615
0002b0 e7 e4 c2 be b9 72 83 bf af 6c 58 bb c8 30 40 bd
       -0.38065264 -1.0269386 -0.0033023765 -0.04692152
0002c0 62 d4 41 3f 4d 1f 97 3f f3 99 03 3f 8d b1 d1 3f
       0.75714695 1.1806427 0.5140678 1.6382309
0002d0 85 56 7a bf 6b d5 0a 3e 23 d4 1e be 95 2f b3 be
       -0.9778827 0.13557975 -0.15510611 -0.3499724
0002e0 e7 15 db 3f 00 69 97 be c7 ab 73 3e ca 96 ac 3f
       1.7116059 -0.29572296 0.23795997 1.3483517
0002f0 2b ad ce 3d 6f 8d 8c 3f 75 e4 a7 be 48 60 72 3f
       0.10091623 1.0980662 -0.32791486 0.94678164
000300 34 f3 11 bf 8d f8 52 3f f9 aa e3 3f 92 7d 40 be
       -0.57011724 0.8241051 1.7786552 -0.18797901
000310 e0 4f 05 3f 36 05 ed bf 87 d7 3a c0 67 bd 14 bf
       0.52075005 -1.8517215 -2.9194047 -0.58101505
000320 58 94 08 bf 11 a2 63 3f f4 74 62 bf 65 dc 0e 3f
       -0.53351355 0.8891917 -0.88459706 0.55805045
000330 77 9b c8 bf 88 ba 3e be 54 30 42 3f 7b 1b e1 3d
       -1.5672444 -0.18625844 0.7585499 0.109915696
000340 cc c1 67 3f 92 67 85 3f 2b af 05 bf ae 50 ae 3f
       0.90530086 1.0422232 -0.5222041 1.3618371
000350 c2 71 7d 3e aa d5 f1 3f dd a7 eb 3f 94 f4 a9 3f
       0.24750426 1.889333 1.8410603 1.3277764
000360 eb 62 78 bf 4c f9 9e 3f ff 34 9d 3f a4 8b 02 bf
       -0.97025937 1.2419829 1.2281798 -0.50994325
000370 b6 a2 62 3e 16 f1 12 bf 20 67 ba 3f 7d 78 e2 3f
       0.22132382 -0.5739912 1.4562721 1.769302
000380 5b 75 d3 3f fd 8e de be 08 61 8a be 21 1b b8 bf
       1.6520189 -0.43468466 -0.27027154 -1.4383279
000390 31 d7 9f 3f 08 45 a3 3f 03 95 c6 3e 91 9f c6 3e
       1.2487546 1.2755442 0.38785562 0.38793615
0003a0 31 97 a0 bd 86 3a b0 3e 64 02 73 3f 34 1b b1 bf
       -0.078413375 0.3441965 0.9492552 -1.3836427
0003b0 6a 38 dc 3f 58 4b 17 c0 6e a7 6d bf e7 3c 97 3e
       1.7204716 -2.3639736 -0.928336 0.29538652
0003c0 ae c0 60 3e 50 ac 70 3f da ff ba 3f 0d 2d 0e bf
       0.21948501 0.9401293 1.460933 -0.5553749
0003d0 7f 6f 3d bf a1 6b 51 be 9f 05 6b be d8 b5 50 38
       -0.73998255 -0.20451213 -0.22951363 4.976042e-05
0003e0 3d dc c2 3e d7 40 14 bf 82 7a 13 bf 92 87 81 3f
       0.38058653 -0.5791144 -0.5760881 1.0119498
0003f0 9a 70 db bd 88 75 96 bf f5 92 b5 bd 4c 83 10 3f
       -0.107148364 -1.1754618 -0.088659205 0.56450343

lstm.weight_ih_l0 f4 [200, 20]
000000 9b 2e 07 be 8b 28 90 bd 69 dd 10 bd f1 bb 14 be
       -0.13201372 -0.07038983 -0.035367403 -0.14524819
000010 61 6c 2b 3d 4b a5 91 3c cb 1c 40 3d 8b 07 96 bd
       0.041851405 0.017779013 0.04690246 -0.073256575
000020 5e 4a 9b bd 25 86 9c 3d 86 d5 eb 3d b1 41 a2 3d
       -0.07582544 0.076427735 0.11515336 0.07922686
000030 75 09 c3 bd b2 49 10 bc da 7b ca bd af 1b 43 3d
       -0.09523288 -0.008806633 -0.09886904 0.047633823
000040 bb 9a cd bd d9 db 2c 3d c5 9f c1 bb e0 0c 04 bd
       -0.10039278 0.04220185 -0.0059089386 -0.03223884
000050 19 3c d6 bd 1f 42 ea bd d7 14 57 be 24 61 0e 3c
       -0.104606815 -0.11438393 -0.21004044 0.008690152
000060 b0 42 91 3d c1 16 84 3c 4c 8d 37 be 8d 6e f6 3d
       0.07092798 0.016124131 -0.17924994 0.12032805
000070 e6 4d 5c be 17 e2 88 3d 96 97 01 be 6b ea 78 3c
       -0.21514091 0.06683748 -0.12655482 0.015192608
000080 0d b6 af 3c fb 41 63 bd 1c 08 42 bc 15 e5 75 3b
       0.021449113 -0.055482846 -0.011842754 0.0037520577
000090 f7 59 28 3e 3c 42 3e be a1 b7 31 3e 61 28 1d 3e
       0.16440569 -0.18579954 0.17355205 0.15347435
0000a0 b6 66 08 3e 70 19 d6 bc 0a 34 46 bd 11 89 d6 bc
       0.13320431 -0.026135176 -0.048389472 -0.026188405
0000b0 99 eb b6 3d 2f 42 c2 3a 18 a5 f7 3d b3 63 42 bc
       0.089316554 0.001482075 0.12092036 -0.01186459
0000c0 f7 8f 4f be a4 a7 0b 3e db fd 5d bd c9 71 fc 3d
       -0.20269762 0.13638169 -0.054197174 0.1232639
0000d0 3e 09 ee bc c1 a7 ec 3d 9a 82 96 bb 6a 53 d6 3c
       -0.029057141 0.11555434 -0.0045932056 0.026162822
0000e0 12 25 84 bd 1c a7 9f bb 4e b1 84 3d 0a c6 ca 3c
       -0.06452383 -0.004872216 0.06479131 0.024752636
0000f0 a6 56 5c 3d 09 81 5b 3d 6e f7 46 bd d5 94 a4 3d
       0.053793572 0.053589854 -0.04857581 0.080362
000100 df f9 4a 3d 21 56 9a bd 93 4a f0 bd 4e 53 32 bd
       0.049554702 -0.07535959 -0.11732974 -0.043536477
000110 86 b8 ef bd 7d 4f 43 bd 61 54 f6 bd 01 fa 2b be
       -0.11705117 -0.047683228 -0.12027813 -0.16794588
000120 a2 25 d3 bd 29 0f 38 bd a7 b8 11 3d 88 36 d8 3d
       -0.10309912 -0.044936333 0.03557649 0.10557276
000130 b2 a0 b5 3d 8f 93 0b 3d 4e 8f c5 bd 9a b5 29 3d
       0.08868541 0.03407627 -0.09646474 0.041432954
000140 54 1a f4 3d ca af a6 3c a6 50 8e 3d f4 0e 31 bd
       0.11919084 0.020347495 0.06948976 -0.04322715
000150 c6 e8 72 3d a4 0f 08 bd 77 a1 4a 3d 33 50 a5 bd
       0.05930402 -0.03321804 0.04947039 -0.080719374
000160 08 a6 e9 bd c5 7d 12 3e 1b cd dc 3d d0 41 f9 3c
       -0.11408621 0.1430579 0.10781308 0.03042689
000170 c6 9e 2c 3d 9b 07 24 be 22 08 dc bd 14 47 99 3b
       0.042143606 -0.16018526 -0.10743739 0.0046776626
000180 2a f9 13 3b a2 3f 51 bd 12 ac fc bd 2c 7e d9 3c
       0.0022578933 -0.051086076 -0.12337507 0.026549421
000190 e1 34 a1 3d 8e a3 b7 bc 05 d4 61 3c 78 81 af bd
       0.07871414 -0.022416856 0.01378346 -0.08569616
0001a0 19 f6 85 bd 00 bd 94 3d 53 a5 2a be 44 47 aa 3d
       -0.0654108 0.072626114 -0.16664629 0.08314374
0001b0 3d 78 a2 3a a8 f8 20 3e c0 b7 cb bd 39 3e 00 bd
       0.0012395453 0.15719855 -0.09947157 -0.03130934
0001c0 1d ee 0d be c8 18 9e 3d 38 07 e9 bd d3 38 74 bd
       -0.13860364 0.077195704 -0.1137833 -0.059624504
0001d0 c7 f5 03 3c a4 05 18 3e 9f b2 7b bb 28 55 a5 3d
       0.008054203 0.14845902 -0.0038406027 0.08072883
0001e0 fe 61 0e be 32 fd 08 be ef dc 65 3d 97 67 a9 3b
       -0.13904569 -0.13377836 0.0561189 0.0051698196
0001f0 13 af 73 3d 59 d7 ae bd 9b a6 c6 3c f7 42 93 3d
       0.059493136 -0.08537168 0.024249366 0.07190507
000200 9d a2 04 be 48 05 25 3b ec 37 2c be be 6f d3 3d
       -0.12952657 0.002518015 -0.16818208 0.103240475
000210 fd f6 a9 3d 26 1c e9 bd 9d 94 d6 bd 99 6e a8 bd
       0.082990624 -0.11382322 -0.104775645 -0.0822422
000220 8d 6b 95 3d 60 3c d8 3c 87 0c 91 bd 9a 41 22 bd
       0.07295904 0.026395977 -0.070824675 -0.039613344
000230 fc 73 09 be 85 23 e6 bd 81 4d bb 3c 4f 26 2f 3d
       -0.13423151 -0.112372436 0.022864105 0.042761143
000240 3c bf 0b 3e 6f f7 eb 3d 1e ea a7 bd 5d 1f fa bb
       0.13647169 0.115218036 -0.08198951 -0.0076331333
000250 90 82 94 3d 6c 7f 9c 3c d6 52 1d bd 87 9a 70 3b
       0.07251465 0.019103728 -0.038409077 0.00367132
000260 ab 21 63 bb 9f aa 17 3e 0d 59 d5 bd e0 88 07 be
       -0.003465752 0.1481118 -0.10417376 -0.13235807
000270 a7 a0 5c bd 92 b8 75 bd 40 e5 d3 3d 22 ff af bd
       -0.053864148 -0.059990473 0.1034646 -0.085935846
000280 6c 6d 19 be 94 3b c3 bc ac 69 9c bd 52 ba 8a bd
       -0.14983147 -0.02383212 -0.07637343 -0.06773819
000290 07 22 f4 3d a2 64 da bd 4a 77 8a 3c f6 d8 bf 3c
       0.11920553 -0.106637254 0.016902585 0.023418885
0002a0 4e de 69 bd e7 b3 46 3e 1c ca 0a 3e e4 af e0 bd
       -0.057096772 0.19404565 0.13553661 -0.109710485
0002b0 87 17 b1 bd be 76 3f bc 35 b6 01 be ca 16 40 3e
       -0.086470656 -0.011686025 -0.12667163 0.18758693
0002c0 3a 5a 11 3e 30 32 dc bd 71 6a 1d 3e 78 0d 3c bd
       0.14194575 -0.1075176 0.15372635 -0.045911282
0002d0 fc 49 2a be 33 ef 3d 3d 39 07 09 3d e8 1b 5a 3b
       -0.16629785 0.046370696 0.033454154 0.0033280794
0002e0 0c ab 3d be 19 10 e5 3d 19 f2 15 bd 63 63 13 be
       -0.1852228 0.11184711 -0.036607835 -0.14393382
0002f0 4c 55 82 bd 97 bb 81 bc 18 94 ac bd ce c8 dc 3c
       -0.06363925 -0.01583652 -0.08426684 0.02695122
000300 e9 98 fa 3d 7a b6 26 be 47 5f ad bb 53 6a 80 3d
       0.122361965 -0.16280547 -0.005290899 0.0627028
000310 b9 52 a5 bd fa 6c a3 3d 2e 8c 2d 3d 88 5a 0d be
       -0.08072419 0.0797977 0.042370014 -0.13804066
000320 e8 f9 11 bc ae a4 0e 3d 68 28 2c 3d c2 9c 8d 3d
       -0.00890968 0.03482502 0.042030722 0.06914665
000330 dc 2d a0 3d 4f 00 97 3d ad c4 99 bc 5f 43 dc bd
       0.07821247 0.07373106 -0.01877054 -0.107550375
000340 56 49 19 be 98 d4 89 bd 1d 52 d6 3d 5d 04 31 bc
       -0.14969382 -0.06730002 0.104648806 -0.010804263
000350 1d 9b bf ba 2d cb 59 3d c1 34 1a bd 0d e6 10 3e
       -0.0014618371 0.05317228 -0.037647966 0.14150257
000360 fb ee 98 bd 22 a1 84 be eb 21 43 3d 31 73 1a 3d
       -0.07467457 -0.25904185 0.04763977 0.03770751
000370 3d 47 ee 3d 90 46 48 be 26 b5 0e 3b 4a b0 a5 3d
       0.116346814 -0.19558167 0.0021775453 0.08090265
000380 18 dd de 3d 39 44 b6 bd be 85 af bd ed 5a 72 bd
       0.10882014 -0.08899731 -0.08570431 -0.059168745
000390 3c 44 95 bd be 79 c5 3c 48 11 d6 bd 2f 65 3c be
       -0.07288405 0.024105903 -0.10452515 -0.18397973
0003a0 66 f1 ae 3d 65 6b c2 bd c3 6f b6 bb 1a 27 a3 bd
       0.08542137 -0.0949314 -0.0055675223 -0.079664424
0003b0 ae 79 97 bd 3f 0b d8 3a 6e 0d e0 bc 02 9e cd bd
       -0.073962554 0.0016482844 -0.027350154 -0.10039903
0003c0 fa 07 00 be 6f 59 91 3c 2b 7a 3f be c1 10 c5 3c
       -0.12503043 0.01774284 -0.18698947 0.02405584
0003d0 42 05 c6 bd f6 e4 73 bc 22 6e 37 3e bc 90 55 3d
       -0.096689716 -0.0148861315 0.17913106 0.052139983
0003e0 30 cc 39 3c 04 4b 15 bd 7d b0 f3 3b 75 0a 2a bd
       0.011340186 -0.036448494 0.0074368105 -0.04151388
0003f0 85 62 07 be 4e de e6 bd e2 4b 31 3d 32 91 57 bd
       -0.13221176 -0.1127287 0.043285258 -0.052628703

lstm.weight_hh_l0 f4 [200, 50]
000000 3a 6e d3 3c 4e f1 49 3d aa 14 9d 3d 7d 8c bd 3d
       0.025809396 0.04930239 0.07669957 0.09255312
000010 3b aa bd bd 3d 05 ca bd 50 86 10 3e b3 14 b9 3d
       -0.092609845 -0.098642804 0.14113736 0.09037151
000020 6e 3c 28 3c 4b ad 6d bd b6 8b d8 bd 0b d6 9b 3b
       0.010268314 -0.058026593 -0.10573523 0.0047557405
000030 c1 70 09 3d 52 b3 36 3a 22 a5 64 bd 26 9e c1 3d
       0.033554796 0.000696947 -0.055821545 0.094539925
000040 4a a5 1b 3c 62 32 8b 3c 8c f1 86 3d fc 0f 09 3e
       0.009499857 0.016991798 0.0658904 0.13385004
000050 8c e9 d7 bd b8 b5 ce 3d a3 ab c4 3d 38 19 02 bd
       -0.105425924 0.10093254 0.096030496 -0.03176233
000060 3a b8 55 bd 48 25 86 3d 87 a9 a1 bd 4d 25 9f 3d
       -0.052177645 0.065500796 -0.07893663 0.077707864
000070 d8 20 eb bd c8 d4 47 3d 0f 1f b5 3d d4 20 b9 bd
       -0.11480874 0.04878691 0.088438146 -0.090394646
000080 84 df 83 bd 77 d6 47 3d 42 42 87 bd 53 e9 9e 3d
       -0.064391166 0.048788514 -0.066044345 0.07759347
000090 f4 24 a2 bb 2e c1 f4 bc 8e 38 01 3e b4 3a 41 bd
       -0.004948253 -0.029877272 0.1261923 -0.047175124
0000a0 c5 56 78 bc 0f 1d 67 3c b9 f9 06 be e3 7d 13 3e
       -0.015157406 0.014106049 -0.13181199 0.1440349
0000b0 c3 fe 00 3e 70 fd 27 bc 50 d6 cc 3d 67 73 cc bd
       0.12597184 -0.010253295 0.10001814 -0.09982949
0000c0 a5 b0 84 bd 87 3d 6a 3d a1 ff 9a bd 0d 2d 05 bd
       -0.06479005 0.057187583 -0.075682886 -0.032513667
0000d0 85 76 2c 3e 5c c4 11 be d3 0a c7 3d f6 5c 22 bd
       0.16842087 -0.14235061 0.097188614 -0.039639436
0000e0 71 e7 df bd b6 49 0f be f4 a3 03 3d c7 f8 99 bb
       -0.10932816 -0.13992962 0.03213878 -0.004698846
0000f0 fc a3 ce bd b6 64 fd bd b2 37 9f bd d9 61 58 bd
       -0.10089871 -0.12372725 -0.07774295 -0.05282769
000100 24 15 1f 3c 4d 81 e7 3d c7 01 78 3c c8 a2 10 bd
       0.00970963 0.11303959 0.0151371425 -0.03531149
000110 0e fc e0 bc 6a e0 f4 3c dd 17 52 bd e2 eb c7 3b
       -0.027463939 0.029892165 -0.05129229 0.0061011175
000120 50 2f cb 3d 5b da d7 bd db 3a 02 3d 76 34 a4 38
       0.099211335 -0.10539695 0.03179441 7.829901e-05
000130 86 98 90 3d fd bf 10 3d 04 c0 92 bd 27 a1 05 bd
       0.070603415 0.035339344 -0.0716553 -0.03262439
000140 a3 d9 aa 3d dd 6c a3 bd c6 c8 00 3e 14 7a 23 bd
       0.08342292 -0.079797484 0.12576589 -0.039911345
000150 bb a5 12 3d a1 32 a6 3d 88 a7 8b 3d b6 3d b6 3d
       0.035802584 0.081151254 0.068190634 0.08898489
000160 d3 e6 f4 bd e0 6b dc bd fd 5b 0b be 13 20 9b 3d
       -0.11958089 -0.10762763 -0.1360931 0.07574477
000170 6d 8f 53 3d c3 51 f8 bd 31 f0 e6 3d 64 f3 c0 3d
       0.051650453 -0.1212497 0.112762816 0.09421423
000180 bb 39 cd 3d 59 35 6a bd a2 b9 13 be 69 db 05 be
       0.10020777 -0.057179783 -0.14426282 -0.1307198
000190 93 ba 0f be 15 62 b2 3c ad d0 05 bd f9 df 1f 3d
       -0.14036016 0.021775285 -0.03266971 0.039031956
0001a0 b6 50 56 bd 2f ec c8 3d bd 99 47 3c 6a e3 8b bc
       -0.052323066 0.098106734 0.01218265 -0.017076213
0001b0 c4 de 04 be 9b 2b 2d 3d 27 35 25 3d e8 42 a6 bb
       -0.12975603 0.042277914 0.040333893 -0.005073894
0001c0 79 3a ba bd 78 fc 3a bd 55 00 17 3e ee c6 3f 3d
       -0.09093184 -0.04565093 0.1474622 0.046820574
0001d0 24 ac f5 3d ec b5 34 3d e2 81 7c bd 7b 8c 1c 3e
       0.11995724 0.044118807 -0.061647303 0.15287964
0001e0 63 92 44 bd f7 f7 a9 bd 1c 95 93 bd 6e 79 05 bd
       -0.047991168 -0.08299249 -0.07206175 -0.032586507
0001f0 29 d2 0c be 8f 9f 80 bc 6e bc af bd 93 4b d4 3d
       -0.13752045 -0.015701083 -0.08580862 0.10365977
000200 c6 d1 1a 3e 29 5c 40 3d 13 db 8d 39 c7 6b 01 3e
       0.15119085 0.04696289 0.0002705684 0.1263877
000210 65 88 07 be 38 cb 44 3c 95 22 ee bc 83 75 28 3d
       -0.13235624 0.012011342 -0.029069224 0.041127693
000220 55 25 49 ba 4e 63 ba 3d 82 88 21 3c 35 80 61 3d
       -0.00076731044 0.09100972 0.009859206 0.05505391
000230 18 cb 19 bc 71 8f 9f 3d 70 1b 64 3d 59 69 87 3d
       -0.0093868 0.07791031 0.05569023 0.0661189
000240 c7 fa 98 3b c1 18 10 be 27 fb 78 bd 6c 6c ae bc
       0.004668567 -0.14071943 -0.060786393 -0.021291934
000250 39 3e a4 3d 0f 2a 1f be 45 71 75 bd 21 4e 5c 3d
       0.080196805 -0.15543388 -0.059922475 0.053785447
000260 f9 1d 97 3d 1b 6b 48 bd 74 2c ee bd 38 39 0d 3d
       0.07378764 -0.04893027 -0.116295725 0.034478396
000270 b9 ad 45 bd d5 3c 30 3d b7 e6 ea 3d 5a f3 4c 3d
       -0.048261378 0.043026764 0.114697866 0.050036766
000280 d0 3d 8d 3d 14 a9 f0 3d 34 ce 8d bd 6f 34 64 3d
       0.068965554 0.11750999 -0.06924096 0.055714067
000290 25 38 ad 3b 1c d2 af 3d 49 d4 38 3d 19 ef ea bc
       0.005286234 0.08584997 0.045124326 -0.028678464
0002a0 b4 98 2e 3d 49 71 ea 3c 96 0a c6 bd a7 11 82 3d
       0.042626098 0.028618472 -0.09669988 0.06351023
0002b0 e7 da d4 bd c6 41 13 3e 50 fc d0 bd 64 90 9e 3c
       -0.10393315 0.1438056 -0.10204375 0.01935596
0002c0 78 8a b0 bd e8 8b 80 3d 3f e2 db bd 16 f5 23 3b
       -0.08620161 0.06276685 -0.107365124 0.0025017909
0002d0 78 71 a8 3d 61 ca e5 bd 6c 8a 60 bd 29 41 c0 3d
       0.082247674 -0.11220241 -0.05481951 0.09387428
0002e0 e9 64 b9 3c 6f 55 a2 3d 6d 5e c6 3c 24 4e db ba
       0.022631126 0.079264514 0.024214948 -0.0016731662
0002f0 b3 fa a9 bd 1b 32 5a bd 03 e2 0b be a4 5f 02 3e
       -0.0829977 -0.05327044 -0.13660435 0.12731797
000300 d1 00 13 3d 73 d1 cc bc 84 9f 8b bd b4 f9 31 bd
       0.03588945 -0.025002217 -0.068175346 -0.043451026
000310 2c e2 8e ba 5d 98 28 3b be 12 8b 3d 40 29 b7 bd
       -0.0010901145 0.0025725581 0.06790684 -0.08943415
000320 f8 d1 ff bc b3 e0 bd bd 31 15 0a 3e f0 52 fe 3d
       -0.03122805 -0.092713736 0.13484646 0.12418163
000330 84 00 f1 bc a1 15 b8 3c b3 d2 94 3d 2e 72 e9 3d
       -0.029419191 0.022471251 0.0726675 0.11398731
000340 00 e9 c7 3d 2a 84 17 bd e3 b8 f1 bd 33 7c 07 3e
       0.09761238 -0.036991276 -0.118028425 0.13230972
000350 3f ac 62 3d 36 11 f5 bd 73 5d fa 3c 69 f3 d3 3d
       0.055340048 -0.11966173 0.030562138 0.10349161
000360 4f 07 c6 bd 05 77 d3 bd 1f 87 36 bd c1 9e 7f 3d
       -0.09669363 -0.103254355 -0.044562455 0.06240726
000370 2a 91 13 ba 8a e9 a0 3d 3f 26 0d be fa 2a 28 bd
       -0.0005629236 0.07857044 -0.13784121 -0.04105661
000380 dd d5 ac bc 8a 67 cf 3d a0 e7 e4 bd 5f 4e f4 bd
       -0.021098072 0.101271704 -0.111769915 -0.119290106
000390 37 70 c3 3d 85 0a 15 be 77 c4 f6 bc 58 41 bb 3d
       0.09542888 -0.14554794 -0.030122979 0.09143323
0003a0 ec 5b 3a 3c c9 8e f8 39 a0 b6 13 bd 10 c8 06 3e
       0.011374455 0.0004740863 -0.036062837 0.13162255
0003b0 d6 0c 9d 3c 58 4d 0c bd 4c 73 ba 3d ab 04 d8 3c
       0.01917116 -0.03425345 0.091040224 0.026369413
0003c0 0c 2c ad 3c 39 4a 5f 3d 6c e3 7e 3d 45 bd 95 bd
       0.021139167 0.054514144 0.062228605 -0.07311491
0003d0 ea 46 bf 3d f9 04 82 bd 4c 90 47 39 14 71 9a 3d
       0.09339698 -0.06348605 0.00019031874 0.07541099
0003e0 d6 78 0d 3e 6e 0b 9e 3d 52 e5 05 be 7c 4f b5 bd
       0.13815627 0.07717024 -0.1307576 -0.08853051
0003f0 89 a7 55 3d 25 b1 97 bd db 95 46 3b 34 63 ee bd
       0.052161727 -0.074068345 0.0030301723 -0.11640015

lstm.bias_ih_l0 f4 [200]
000000 ef 9a 96 3d d6 22 3c 3e 84 6b 52 3e 36 12 b0 3d
       0.0735377 0.18372664 0.20548826 0.085972235
000010 f3 d1 9b 3d e1 97 d1 3c 2e b5 0f 3e f6 1d 0e 3e
       0.07608404 0.025585117 0.14033958 0.13878617
000020 01 b3 9e 3d c2 33 27 3e 07 fe c7 3d 26 48 5e 3d
       0.07748986 0.16328338 0.09765249 0.054268025
000030 ea 42 6d 3e 0f 4e 4d 3e b8 88 0f 3e f9 ae 32 3e
       0.23170057 0.20049308 0.14016998 0.1744956
000040 6e b0 81 3d 15 09 56 3e 29 c7 b7 3d f6 67 5a 3d
       0.063324794 0.20901902 0.08973534 0.0533218
000050 87 d3 cd 3d e2 33 f1 3d 80 df 54 3e 26 e0 15 3e
       0.10050111 0.11777474 0.20788383 0.14636287
000060 b8 d3 e8 3d d3 4d 4b 3e fc cf 81 bb 01 f3 d3 3e
       0.11368507 0.19853906 -0.0039615612 0.41396335
000070 3a e1 ad 3d df 9b ca 3c 5e 64 78 3e 44 02 3d 3e
       0.08490224 0.024732528 0.24257037 0.18457896
000080 55 95 88 3e 7a eb 7a bd f8 b3 12 3e 0a 40 7a 3e
       0.2667643 -0.061259724 0.14326465 0.24438491
000090 5e 92 8c bc 96 c6 05 3d 8f ac 5f 3e 63 a8 97 3d
       -0.017159637 0.03266009 0.2184317 0.07405164
0000a0 1e 17 bd 3d 76 d8 ca 3c ea 4e 81 bd 82 be ee 3d
       0.09232925 0.02476142 -0.0631388 0.1165743
0000b0 bd 7c 83 3e e1 ba d9 3d e1 cf 89 3e 49 31 3b 3e
       0.25681105 0.106313474 0.26916412 0.1828052
0000c0 ed bc 53 3e 5c 9a 22 3e 3f b1 84 bd 62 21 75 3e
       0.20677538 0.15879196 -0.064791195 0.23938516
0000d0 1e 51 6a 3e 97 18 04 3e af 26 68 bd c8 ef b2 3b
       0.22882506 0.12900005 -0.056677517 0.005460713
0000e0 e9 54 44 3d 15 00 d2 3c 77 55 ca 3d 4f a2 9c bc
       0.04793254 0.025634805 0.098795824 -0.019120364
0000f0 c7 74 4a bd cc b6 2d 3e a4 ae 02 3e 99 c3 c7 3d
       -0.049427774 0.16964263 0.12761933 0.09754104
000100 d5 a7 84 bc 1f 69 cd 3c 39 ca af 3d 5e bd 3e 3e
       -0.01619331 0.02507454 0.08583493 0.18626925
000110 d1 d2 55 3d c3 3c 0c 3e be 9c 2b 3c 54 3f 90 3d
       0.052203003 0.13695054 0.010474382 0.07043329
000120 c5 5f f1 3d 9d 30 32 3d 95 77 4f bc c4 82 40 3e
       0.11785845 0.043503392 -0.012662788 0.18799883
000130 c8 45 13 bd 4d a6 df 3e a0 18 cb 3d 3a 20 19 3e
       -0.03595522 0.43681565 0.09916806 0.149537
000140 0f e6 ff 3d ac 9c 3b 3d c8 fc 26 3e cd 95 eb 3c
       0.12495052 0.04580371 0.16307366 0.028757954
000150 e6 6f 96 3c 33 41 a7 3c 00 0b a7 bd ac 7a 99 3d
       0.018363904 0.020416832 -0.08156395 0.07494101
000160 e4 02 90 3d 9f 4f d5 3b 57 21 75 bc 5f 31 45 3e
       0.07031801 0.0065097357 -0.014961562 0.19257115
000170 68 b6 ba 3d 94 28 0a 3e e0 58 b2 3e 8a 0a 20 3e
       0.091168225 0.13492042 0.3483343 0.1562902
000180 e4 de 51 3e 06 d4 57 bd f0 66 99 3d 83 cf 09 bd
       0.20495182 -0.052692436 0.07490337 -0.033645164
000190 ef 58 15 bd a1 1b 8e be 7d d7 6b 3d 6b 38 84 bd
       -0.036461767 -0.27755454 0.057578553 -0.064560734
0001a0 60 41 f9 3d eb 20 3c be 54 71 d9 3d 3e cb 1b be
       0.121706724 -0.18371932 0.10617319 -0.1521425
0001b0 54 5d 7e bd 3e 5f 68 bc 01 90 94 3c 45 3e 8c 3d
       -0.062100723 -0.014182864 0.018135073 0.068478145
0001c0 32 e2 4b be 48 bc 10 3e 37 0f ec 3b cf 42 a9 bb
       -0.19910505 0.14134324 0.007203962 -0.005165435
0001d0 b3 ba d7 3d b7 3b d6 bd a2 52 6a bd 10 2d 52 3e
       0.10533657 -0.104606085 -0.05720771 0.20525002
0001e0 ae 07 8d 3d 00 a8 83 bd 4a c6 12 bd a6 da 30 3e
       0.068862304 -0.06428528 -0.035833634 0.17270908
0001f0 b1 14 a3 3c 78 a1 9c 3d 40 80 8d bc 01 f6 6f 3d
       0.019907327 0.07647985 -0.017273068 0.058584217
000200 88 92 3f 3d a0 42 28 bc a1 7e 2e 3d 14 da 4c bd
       0.046770602 -0.010269791 0.04260123 -0.050012663
000210 a6 88 8f 3d aa 74 84 bd 05 93 bb bc 41 2b 25 bd
       0.070084855 -0.064675644 -0.022897253 -0.040324453
000220 b5 58 af 3d 8a 88 cd 3d e0 4c eb 3c 6b 2b 5b bd
       0.085618414 0.100358084 0.02872318 -0.053508203
000230 14 30 84 bd f3 ac dc 3d 69 cf e2 3c b5 50 e1 3d
       -0.06454483 0.10775175 0.027686791 0.11001722
000240 a0 cb 85 3c a9 b0 83 be 0e 52 48 be 16 eb 98 3d
       0.016332448 -0.25720719 -0.19562551 0.07466714
000250 6a 98 a2 bd b4 23 04 be 57 ed 56 3d ae c9 bc 3e
       -0.07939227 -0.12904245 0.05247244 0.3687262
000260 9b e9 7b 3e 1e 0c 50 3e 0b 55 a2 3d 35 31 08 bd
       0.24600832 0.20317122 0.07926377 -0.033250052
000270 e1 8f 8f 3d 9e 1b 96 3e 79 71 7e 3e 8a 08 d4 3d
       0.070098646 0.29317945 0.24847974 0.10353191
000280 95 35 a5 3d 84 e5 04 3e 27 89 38 3e 0c a0 a8 3e
       0.080668606 0.12978178 0.1802107 0.32934606
000290 bb a0 6f 3e 58 d4 8f 3e 53 a1 44 3e 70 71 72 3e
       0.23401158 0.28091693 0.19202165 0.23676085
0002a0 c8 84 0d 3e d8 ff 2d 3d 6c 2a 5d 3e 8a ff 50 bd
       0.13820183 0.04248032 0.21598214 -0.05102495
0002b0 7c a8 a6 3d 02 0e 15 3e 45 ef 8a 3e 93 13 53 3e
       0.081376046 0.14556125 0.27135673 0.20612936
0002c0 f9 91 6b bc 34 6d ba 3e 72 a9 2a 3e b8 0b 84 3d
       -0.014378064 0.3641144 0.16666201 0.06447548
0002d0 77 58 9c 3e 81 05 1c 3d 50 cc 3e 3e 9c 9c a9 3d
       0.30536243 0.038091186 0.18632627 0.08281824
0002e0 aa f2 8d 3e f8 03 7a 3e 88 03 69 3d 1c 40 a5 3e
       0.277242 0.24415576 0.056888133 0.32275474
0002f0 21 59 81 3e 76 80 bb 3d dc 5f 2d bc 67 10 0d bd
       0.25263312 0.09155361 -0.010581937 -0.03443947
000300 33 70 34 bd 3a 4c a6 3e 1c c8 94 3e 8b 5c 24 3e
       -0.044052314 0.3248003 0.2905892 0.16050927
000310 21 62 6d 3e 4b f4 4a 3e 15 61 46 3e 6d 4a 6e bd
       0.23181964 0.19819753 0.19372971 -0.058176447

lstm.bias_hh_l0 f4 [200]
000000 e1 13 9d 3d 77 0d a6 3e ef 4d 03 3e 72 50 27 3e
       0.07669807 0.32432148 0.12822698 0.16339281
000010 6f 99 05 bd e0 ff 31 3e e4 0e f1 3d f7 cf 32 3e
       -0.03261703 0.17382765 0.11770418 0.17462145
000020 8b b9 81 3e c2 17 0d bc d5 87 9f 3d 9c d9 a8 3d
       0.2533687 -0.008611621 0.0778958 0.08244631
000030 ee 38 9f 3e 73 04 6d 3d 3a 91 46 3e c3 14 73 3e
       0.3109812 0.05786557 0.19391337 0.23738389
000040 65 cd 0d 3e 8e e2 00 3e 2b 05 bd 3d 8b 2a 5f 3e
       0.13847883 0.12586424 0.09229501 0.21793573
000050 b9 2f 6e 3d 02 1b 3e 3e 92 a1 47 3e 72 5a 5c 3e
       0.05815098 0.1856499 0.19495228 0.21518877
000060 e2 b6 9a 3e 51 f1 fa 3c 78 23 e0 3c d6 95 ba 3e
       0.30217654 0.030632647 0.027360663 0.3644244
000070 ea 24 ee 3d 71 a8 91 3e 0b c5 65 3e 61 f8 1e 3d
       0.116281345 0.28448823 0.22438447 0.03881109
000080 ab e7 30 3e e2 40 16 3e 42 4a 29 3e 3a 8f a0 3d
       0.17275874 0.14673188 0.16532233 0.07839818
000090 ee bf 86 bd 3f 16 8b 3e d5 c5 5a 3e 57 f4 1a 3e
       -0.065795764 0.2716541 0.2136453 0.15132271
0000a0 fb 41 3f 3e 06 7e 62 bc 27 08 99 bd a8 47 66 3e
       0.18677513 -0.013823992 -0.07472258 0.22488272
0000b0 97 14 9e 3e 8a 6f 8f 3e 8f 9a 9a 3e 14 6d 40 3e
       0.30875084 0.28014785 0.30196044 0.1879161
0000c0 77 cc fb 3d 2b f3 99 3d 62 6b 6d 3c 16 ca 3e 3d
       0.12294858 0.07517084 0.014490934 0.046579443
0000d0 6b 15 8b 3e 64 52 f8 3b ad 6a c4 3d f9 69 c3 bd
       0.27164778 0.007578181 0.09590659 -0.09541697
0000e0 f6 4f 2a bc 99 c5 6c 3d f9 33 35 3e be 39 bf bc
       -0.010395041 0.05780563 0.17695607 -0.023342963
0000f0 19 79 a6 bd 04 6f 40 3e b9 6c c5 3d 4c 11 8d 3e
       -0.08128566 0.18792349 0.09639878 0.2755226
000100 aa 37 35 3e 75 96 8e 3d a5 42 78 3c 44 2c 65 3e
       0.17697015 0.06962291 0.015152608 0.22380167
000110 57 cd 7d 3e 3f cb 43 3e a6 ad 96 3d 52 7d aa bd
       0.24785362 0.19120501 0.073573396 -0.08324684
000120 db 1f c8 3d 7b 2d 47 3e 7f 19 15 3e e1 8c 9a bd
       0.09771701 0.19450943 0.14560507 -0.07546402
000130 bd 00 96 bc 51 ec 92 3e eb 83 16 bc 73 5b 2d 3e
       -0.018310899 0.2869592 -0.009186725 0.16929416
000140 70 0b b6 3d 3b bd 69 3e 65 3f 80 3e 60 e6 8a bd
       0.088889 0.22826092 0.25048366 -0.06782222
000150 41 2e 65 3e c9 03 5b 3d a1 da 53 3d 8a 79 4e 3e
       0.22380926 0.053470407 0.051722173 0.20163551
000160 80 d6 3f 3e 93 b1 da 3a 28 9f a7 3d ec 6d 06 3b
       0.18734169 0.0016685001 0.081846535 0.0020512296
000170 55 62 b2 bc fd 97 eb 3d 96 11 b2 3e 87 4e 39 bd
       -0.021775404 0.11503599 0.34779042 -0.045240905
000180 1e fe 93 3e 71 26 33 3e 45 02 81 3d 27 f0 7d 3d
       0.28904814 0.17495133 0.06299261 0.061996605
000190 6c 9a d3 bd c3 58 a7 be a4 59 bc 3d 81 55 ba bd
       -0.10332188 -0.32684907 0.09196785 -0.0909834
0001a0 93 ce a1 3c e4 da 1d bc 0a d6 1b 3e aa 97 3d be
       0.019751823 -0.009634707 0.15218368 -0.18514886
0001b0 9d 64 7c be 49 90 03 3e 6e 60 98 3b 6b cf 2c be
       -0.24647756 0.12848009 0.004650167 -0.16875999
0001c0 a0 ac 33 be 1b 3c f3 3c 8b 07 80 3d 17 6e 65 3d
       -0.1754632 0.029691746 0.06251439 0.056013193
0001d0 a3 8b 04 be fb 0e c8 bd 1f 23 c6 3d a6 36 49 3e
       -0.12943892 -0.09768482 0.096746676 0.19649753
0001e0 8e 8a a3 3c 66 dc 38 be a2 81 f1 3d 88 fe 99 3d
       0.019963529 -0.18052825 0.117923036 0.07519251
0001f0 14 0f 57 bc bd 28 9a 3e c9 c9 0b 3b f4 74 f8 3c
       -0.0131261535 0.30109206 0.002132999 0.030329205
000200 77 7a ef bc 09 8f 6a bd 99 71 e6 bd 93 1d ba b9
       -0.0292332 -0.057265315 -0.11252136 -0.0003549872
000210 e4 f4 e3 bc 18 02 cf bd de c9 05 be 55 02 42 bd
       -0.027826734 -0.10107821 -0.13065287 -0.047365505
000220 13 c1 04 3d 1f 0a e9 3c d0 a4 01 be 0e 98 71 3d
       0.032410692 0.028447209 -0.12660527 0.0589829
000230 6e 3a cd bd ba 2f 0e bc 77 8f e6 bc ed 9a b3 bc
       -0.1002091 -0.008678371 -0.028144581 -0.02192446
000240 e9 8c 0f 3e d5 7b a1 be 42 86 5d be d9 39 01 be
       0.14018597 -0.3153979 -0.21633247 -0.12619723
000250 02 58 35 3e ae 77 12 3d 2d db 01 bc fe 7a a9 3e
       0.17709354 0.035758667 -0.007925791 0.33101648
000260 fe 71 a9 3d 80 b3 85 3e 3a 6e bd 3b 03 03 30 bc
       0.082736954 0.2611351 0.0057809623 -0.010742906
000270 92 ca 7c 3e bf dd f7 3d 01 2a 99 3e 08 f6 7f 3e
       0.2468665 0.121028416 0.2991486 0.24996197
000280 58 77 cf bc c2 28 9a 3d ab 0c e1 3d 4f 57 e3 3d
       -0.025325462 0.07527305 0.10988744 0.11100637
000290 7f 33 1c 3d 8a 27 10 3e 89 b9 ae 3d 37 79 94 3e
       0.038135048 0.14077583 0.08531482 0.2899873
0002a0 ab db 7f 3e f3 65 80 3c 12 08 7a 3d 4c 6a 38 3b
       0.2498614 0.015673613 0.061042853 0.002813953
0002b0 df da 86 3e d6 87 5b 3e 84 65 82 3e 84 e8 f3 3d
       0.2633886 0.21438536 0.25468075 0.11909583
0002c0 e7 d0 6a bb f6 a4 f9 3e a1 55 a4 3e 29 ab 1a 3e
       -0.0035830082 0.48758668 0.3209658 0.15104355
0002d0 2f 22 82 3e 1a 29 d4 3d a0 c7 fd 3d b1 9b bb bd
       0.25416705 0.10359402 0.12391591 -0.09160555
0002e0 e1 d0 a4 3e f2 98 6a 3e bb f8 8d 3d 78 65 83 3e
       0.32190612 0.22909907 0.06932207 0.25663352
0002f0 b5 39 ef 3d 40 1d bd 3d 06 be 54 3e af f4 92 3d
       0.116809286 0.092340946 0.20775613 0.07175576
000300 a8 c7 1c bd f6 8d 96 3e 20 57 5b 3e 48 85 1a 3e
       -0.038276345 0.29405183 0.21419954 0.15089905
000310 75 24 d6 3e 79 4c 85 3d 6f 01 ff 3d 58 7a c0 bc
       0.4182469 0.065087266 0.12451445 -0.023495838

lstm.weight_ih_l1 f4 [200, 50]
000000 9e aa e4 3d ae 6f a1 3d 0c 07 23 3d 08 50 64 3d
       0.11165355 0.07882629 0.039801642 0.055740386
000010 99 97 80 bd 6c 8d f7 bc 1e 52 31 bd 12 07 f8 3d
       -0.06278915 -0.030218802 -0.043291204 0.121107236
000020 13 d4 9b bd ec 51 35 3d 02 6c 9c bd 77 d1 00 3e
       -0.07608809 0.04426758 -0.07637788 0.12579904
000030 f8 cb 9c bd ce 51 e5 3d a0 d3 21 3d 02 79 b5 3d
       -0.076560915 0.11197244 0.039508462 0.08860971
000040 b0 bc 4a 3d b0 66 0b 3d 8c d2 cf bd 25 0d 96 bd
       0.049496353 0.034033477 -0.101475805 -0.07326726
000050 0a 49 65 bd c4 a4 7c bd 90 c4 59 bd 28 d4 c6 3c
       -0.05597786 -0.06168057 -0.053165972 0.024271086
000060 7c 61 19 3d 10 24 20 3d a8 6e 7a bd cc 78 c7 3d
       0.037446484 0.039096892 -0.061140686 0.09739837
000070 8e e1 b8 3d 5c 8d e1 bc 30 d4 5b 3c d9 53 0c 3e
       0.09027396 -0.027533226 0.013417289 0.1370386
000080 9e 4e c6 3d 9a 2c 54 bd e8 dc e9 3c a7 fe 0e 3e
       0.09682964 -0.051800348 0.02854772 0.1396433
000090 64 b3 f3 bc fb 34 04 3e fe 8f ed 3d b4 57 0c 3d
       -0.029748626 0.12910835 0.1159973 0.034263328
0000a0 e1 48 0f be 42 24 ce 3d 88 05 93 bc 70 66 cf 3c
       -0.13992645 0.100655094 -0.017946973 0.0253174
0000b0 75 35 8b bd 3e c3 e5 3d e0 39 2f bc 0e 75 01 be
       -0.067973055 0.1121888 -0.010694951 -0.12642309
0000c0 08 29 b3 3d 9d 97 07 3e c0 72 88 bd f4 0d 10 be
       0.087480605 0.1324143 -0.06662512 -0.14067823
0000d0 c0 76 72 3c b4 5e 27 3d f0 de 76 3c 26 b1 d9 bd
       0.01479882 0.0408618 0.015067801 -0.106294915
0000e0 20 7a 99 bb 20 e8 ef 3c a0 e9 7f 3d 23 c3 96 bd
       -0.004683748 0.02928549 0.06247866 -0.07361438
0000f0 50 af a7 bd 36 d6 a1 bd 52 c6 15 bd fc de 91 bc
       -0.08187735 -0.079021856 -0.036566086 -0.017806523
000100 55 9f aa bd e6 20 b9 3d 58 78 07 be 88 6e b6 bd
       -0.083311714 0.09039478 -0.13229501 -0.08907801
000110 c9 f3 81 bd 1a 05 03 be 6e e0 f8 3d 73 cd 09 3e
       -0.063453265 -0.12794915 0.121521816 0.13457279
000120 a4 70 cf bc fe f4 4d bd 44 4c b3 3d c9 3e 08 3e
       -0.025322266 -0.05028247 0.08754781 0.133052
000130 80 5b c0 bb 42 69 86 3d f0 0a 23 3d 4c 4a 4d 3d
       -0.0058702826 0.06563045 0.039805353 0.050119683
000140 b2 ac e9 3d 19 69 87 bd 5c f0 44 3d a0 83 c7 bd
       0.11409892 -0.06611843 0.048080787 -0.09741902
000150 68 f6 01 be 67 8e 08 3e aa ef 97 bd 75 75 91 bd
       -0.12691653 0.13335572 -0.07418759 -0.07102481
000160 4d 61 a1 bd 3c 1e 2f 3d 78 b4 f1 bd 8c a6 fa bc
       -0.07879887 0.042753443 -0.11802 -0.030596994
000170 c0 58 ed bd 18 7c a5 bd 60 f4 8e 3d 55 aa 01 3e
       -0.11589193 -0.0808031 0.069802046 0.12662633
000180 00 8b 66 3a 48 53 8a bd de 6b ab 3d 3e 1b 65 bd
       0.00087945163 -0.06754166 0.083701834 -0.055934183
000190 00 7c eb ba e0 d3 e1 bb 16 bc 04 be 13 e5 e7 bd
       -0.0017966032 -0.0068917125 -0.12962374 -0.11322989
0001a0 6c 20 37 3d c0 44 1a 3c d9 d0 95 bd 20 45 e9 3c
       0.044708654 0.009415805 -0.07315225 0.028475344
0001b0 0c d2 a4 bc 00 bc 24 39 cc f8 cb bd dc eb 26 3d
       -0.02011969 0.00015710294 -0.099595636 0.040752277
0001c0 74 6b 80 3d 90 2e 64 bc 38 e7 13 3d 36 0e 87 3d
       0.06270495 -0.013927117 0.03610918 0.065945074
0001d0 30 5a a3 bc 30 1b 72 bc d0 a9 1b bc 46 b9 93 bd
       -0.019940466 -0.01477699 -0.009500936 -0.072130725
0001e0 c0 ec c7 3d 15 69 fc bd 60 6d eb 3c dc db 77 bd
       0.09761953 -0.1232473 0.028738678 -0.06051241
0001f0 f8 c1 e3 3c c0 fd 19 bb 5a c8 22 bd 0c 3f 57 bd
       0.027802452 -0.0023497194 -0.03974185 -0.05255036
000200 5a 56 d2 bd d0 ff 41 3c e0 57 93 3c 26 35 99 3d
       -0.102703765 0.011840776 0.017986238 0.074808404
000210 a0 8d 13 bd e6 96 c4 bd e0 74 d2 3c ac d5 7b bd
       -0.036023736 -0.09599094 0.025690496 -0.06148307
000220 63 29 0c be d8 fe 93 3c c0 98 e3 3b 48 9c 24 bd
       -0.13687663 0.018065855 0.0069456995 -0.040188104
000230 f0 1b 1c 3d 60 92 5f bc bc 7c 8b 3d 94 bc 68 3d
       0.03811258 -0.013645738 0.068109006 0.056820467
000240 34 48 55 3d 19 45 06 be ae e2 3d bd 5e 56 11 bd
       0.05207081 -0.13112296 -0.046358757 -0.035482757
000250 40 61 01 3d 1e 27 c6 3d ac 99 98 bc da ed 6c bd
       0.031586885 0.0967543 -0.018627964 -0.05784402
000260 b2 04 e1 bd 90 66 b1 bd 34 49 bb bc 88 87 a2 3c
       -0.10987224 -0.0866214 -0.022862054 0.019840017
000270 4c f1 3a 3d e8 e1 db 3d 93 ed 01 3e 90 fd 82 bc
       0.045640275 0.107364476 0.12688284 -0.015990049
000280 90 14 b8 bc e8 c7 f2 3c 30 f6 3c bd 80 71 3f 3c
       -0.022470742 0.029636338 -0.04613322 0.011684775
000290 2c 3b 4f 3d 0a 64 f4 3d dc c1 34 3d b7 e2 0c 3e
       0.05059354 0.119331434 0.04413019 0.1375836
0002a0 38 6b fd bc f4 3e bf bd 74 8d 69 bd 7a 5e b7 3d
       -0.030934915 -0.09338179 -0.057019666 0.08953567
0002b0 30 e9 a7 3d 9a 77 d3 bd ec 03 3f bd 2e dc 92 3d
       0.08198774 -0.103255466 -0.0466346 0.07170902
0002c0 44 b9 02 bd b6 f3 b8 3d 70 85 7f bc 4c 00 41 3d
       -0.031914964 0.09030859 -0.015595779 0.047119424
0002d0 ce 30 b0 bd c8 52 13 bd 33 80 09 3e 5e 64 fb 3d
       -0.08603059 -0.03596762 0.1342781 0.12275003
0002e0 a2 22 33 bd ba 15 a2 bd f0 44 c9 3c 2e f8 47 bd
       -0.0437342 -0.079143 0.024569005 -0.048820667
0002f0 50 d4 76 3d 2f 0c 95 bd d4 6d 32 3d fd fa 8c bd
       0.06026107 -0.072777145 0.04356177 -0.0688381
000300 7b ce c6 bd c8 e1 91 3c 0b 94 01 be 4c d7 46 bd
       -0.09707352 0.017807856 -0.1265413 -0.048545167
000310 52 7b a2 3d 3d 22 05 3e 82 f6 f5 3d c0 a6 cb 3d
       0.07933678 0.13001342 0.12009908 0.099439144
000320 f5 ad c3 bd e8 9c f2 3c 50 57 ce 3c e0 20 74 bd
       -0.09554664 0.029615834 0.025188118 -0.059601665
000330 66 7b 02 be 29 bc 0f 3e c6 99 e5 3d 10 3c a8 3c
       -0.12742385 0.14036621 0.112109706 0.020536453
000340 69 00 09 3e 02 f2 c3 3d d9 35 e3 bd 98 44 9e 3c
       0.13379063 0.09567644 -0.11094255 0.019319817
000350 14 36 a2 bd c2 57 bc bd 60 13 cd 3b b0 f5 d9 3c
       -0.07920471 -0.09196426 0.006258413 0.02660641
000360 26 26 86 3d d9 28 9e bd 1b 82 dc bd 30 5f 53 3d
       0.06550245 -0.07722635 -0.10767003 0.05160445
000370 dc 2f 9f 3d a8 86 22 3d 72 eb 15 bd 10 bb 4b 3c
       0.077728 0.0396792 -0.03660149 0.012434736
000380 a0 b1 4d bc 97 a4 0a be 80 9b 6c 3b b8 95 9e 3c
       -0.012554556 -0.13539349 0.0036103427 0.0193585
000390 d8 09 ce bd 56 87 c5 bd ce 3d e1 3d bf a7 d5 bd
       -0.10060471 -0.09644954 0.109981164 -0.10432386
0003a0 6e 7a 51 bd c0 94 94 3c 90 76 ad bd 5e 92 a8 bd
       -0.05114215 0.018137336 -0.084698796 -0.08231042
0003b0 e0 b8 78 3d a0 4b 0a bc de da fe 3d 9a c9 a4 3d
       0.060723186 -0.008440882 0.12444089 0.08046265
0003c0 90 48 dc bd 62 a6 fa 3d 38 32 f5 bc b0 4a d9 3d
       -0.10756028 0.12238766 -0.029931173 0.10609949
0003d0 04 cd 8e bd 58 3f fa 3c 0a 2d ce 3d 10 90 37 bc
       -0.069726974 0.030547783 0.10067184 -0.011203781
0003e0 bf 64 0a 3e ca 05 84 bd 2c a2 b9 bc 17 75 ec bd
       0.13514994 -0.06446417 -0.022660337 -0.115457706
0003f0 4c 4f b3 bd d4 53 a5 3d 68 a8 98 bd 92 65 67 bd
       -0.08755359 0.080726296 -0.07453996 -0.05649335

lstm.weight_hh_l1 f4 [200, 50]
000000 d4 a6 4d bd 64 ac bd bd 52 a1 bc bd a3 da 8c bd
       -0.050207928 -0.092613965 -0.09210457 -0.06877639
000010 c6 1a aa bd d4 59 e2 bd 80 ee 14 3d 40 77 be 3c
       -0.08305888 -0.110522896 0.036360264 0.023250222
000020 3c 1a 9e 3d d6 6e 3b bd 8a 71 fa 3d bc a4 a9 bc
       0.077198476 -0.04576 0.12228687 -0.020708434
000030 48 56 9e bd e8 13 ed bd 00 23 40 3a f0 e2 a5 3d
       -0.077313006 -0.115760624 0.0007329434 0.080999255
000040 60 d3 93 3b e6 5f bb 3d c4 48 f3 bd 08 0d bf 3d
       0.004511282 0.091491506 -0.11879113 0.093286574
000050 6c 60 5d bd c2 89 dc 3d 78 d8 86 3c 00 34 b5 bd
       -0.054047033 0.10768463 0.016460642 -0.08847809
000060 0e c5 d6 3d d4 11 3f 3d aa 8a d7 3d 1b 5b a0 bd
       0.10486804 0.04664786 0.10524495 -0.07829877
000070 d0 4b b2 3d 9c 6d c0 3d 00 5f 81 3b 82 3d f0 bd
       0.08705866 0.09395906 0.0039480925 -0.11730482
000080 ca f0 df 3d 2a 2d 53 bd 5f 71 dd bd 02 ec 0f be
       0.10934599 -0.051556744 -0.108126394 -0.14054874
000090 1c cb d0 3d d3 9c 0b be 9c ff 1b bd 24 a7 c9 bc
       0.1019499 -0.13634042 -0.038085565 -0.024615832
0000a0 a0 ef 0f 3d 04 ea 09 3d f2 ee fb 3d e8 e3 a9 bc
       0.035140634 0.03367044 0.123014346 -0.020738557
0000b0 2e 10 91 3d f2 f5 ce 3d 98 32 9e 3c d2 63 1a bd
       0.07083164 0.10105504 0.019311234 -0.037692852
0000c0 20 4f 9a bd 21 73 b3 bd 14 d3 f9 bd 94 e2 b4 3d
       -0.07534623 -0.087621935 -0.12198463 0.08832279
0000d0 3e bb a2 3d b0 de 1d bd ae 58 ee bd 17 84 0e be
       0.0794587 -0.03854245 -0.11638008 -0.13917576
0000e0 2d 45 07 be 70 d1 a2 3c 30 20 90 3d 26 9c e4 3d
       -0.13209982 0.019875258 0.07037389 0.111625955
0000f0 5e 99 ec 3d 3e 4a 70 bd c8 85 32 bd 86 80 ed 3d
       0.1155269 -0.058664553 -0.043584615 0.115967795
000100 1a ad a9 bd 9a 52 b5 bd fd cd e4 bd d0 e4 64 bc
       -0.0828497 -0.088536456 -0.11172102 -0.013970569
000110 34 eb 4b 3d a0 8c 5b bc 1c 27 94 3d 5e ba aa 3d
       0.049784854 -0.013400227 0.07234022 0.08336328
000120 e7 7f 87 bd d0 bc bc bd dc 15 d9 3d 0c f0 dd 3d
       -0.06616192 -0.092157006 0.105998725 0.10836801
000130 66 3b fa 3d 05 73 06 be 38 19 90 3c 14 08 8d 3d
       0.122183606 -0.13129814 0.01759015 0.068863064
000140 d6 fd 5d bd 40 db b2 3b a0 dc fe 3c 4c ea 30 bd
       -0.054197155 0.0054582655 0.031111062 -0.043192193
000150 0e 8d 90 bd b6 61 bc 3d 06 e3 80 3d b0 90 21 bc
       -0.07058154 0.091983244 0.06293301 -0.009861156
000160 8f 0d 0c be f8 c8 c8 3c b7 42 00 3e 60 d8 04 bd
       -0.13677047 0.024509892 0.1252545 -0.032432914
000170 ec 60 69 bd 14 f3 c3 bc f4 b7 6c bd 74 45 11 3d
       -0.056977198 -0.02391962 -0.05779262 0.035466626
000180 6b da 08 3e 6c 9e d8 3d 9a 97 93 3d 10 39 a3 bc
       0.1336457 0.105770916 0.0720665 -0.01992467
000190 b6 72 96 3d 72 82 b6 bd 01 7a 10 be 0e b9 a6 3d
       0.07346098 -0.08911599 -0.14109041 0.08140765
0001a0 63 30 07 be be 4e ba bd 8e 47 f8 3d 8a d3 b8 bd
       -0.13202052 -0.0909705 0.12123023 -0.09024723
0001b0 c8 e2 4a bd 00 86 4e 3c 38 c3 86 bc 70 0e 34 3c
       -0.04953268 0.01260519 -0.01645051 0.01098977
0001c0 e8 72 dd bc 1f 6e 8f bd 7c 1a 88 bd 60 7a dd 3c
       -0.02703233 -0.07003426 -0.066456765 0.027035892
0001d0 70 64 3f 3c 18 14 ca bd 00 81 96 3a 00 be bc bb
       0.011681661 -0.09867114 0.0011482537 -0.0057599545
0001e0 f0 fe 2e bc aa be cc 3d a7 19 08 3e 60 a5 bd bb
       -0.010680899 0.09997304 0.13291036 -0.0057875365
0001f0 28 01 bd bd 90 9e df bd 2e 93 bb 3d 60 49 56 3d
       -0.09228736 -0.10918915 0.09158932 0.05231607
000200 2a 04 fe 3d 1a 36 5d bd a8 d8 20 3d 70 b4 f9 bc
       0.12403138 -0.054006673 0.03926912 -0.030481547
000210 cf 50 01 3e 11 df 0a be a4 4a a7 3d d6 d4 0b be
       0.12628482 -0.13561656 0.081685334 -0.13655409
000220 9a f6 fd 3d b0 53 24 3d eb da 07 3e 60 ed db bb
       0.12400551 0.040118873 0.13267104 -0.006711647
000230 18 9e 1d bd f0 74 1d 3d b8 c2 21 bd e2 f1 b7 bd
       -0.038480848 0.0384416 -0.03949234 -0.08981682
000240 15 cc b6 bd 72 7c ac 3d 15 f4 03 be 00 bb 9c 3b
       -0.08925644 0.084221736 -0.12886079 0.0047830343
000250 5d c7 8a bd d0 b6 47 3d 88 30 9d bd 70 28 b8 bd
       -0.06776307 0.048758328 -0.07675272 -0.08992088
000260 23 b5 05 3e 74 2b 4b bd e0 77 16 bd 1a d8 9b 3d
       0.1305738 -0.049601987 -0.036735415 0.076095775
000270 64 c5 ad bd 55 6d 0e 3e 44 dd 89 bd b0 3b d4 3c
       -0.08484915 0.13908894 -0.06731656 0.025907367
000280 e9 1f 93 bd 66 da 0a be 59 b0 09 3e c6 a5 92 3d
       -0.07183821 -0.13559875 0.13446178 0.07160525
000290 60 c2 d6 3d e8 7b 1f bd cc 8d d3 3d e1 71 0d 3e
       0.10486293 -0.038936526 0.1032978 0.13812973
0002a0 f8 bd a9 3c 12 f9 8e bd 70 79 71 3d e8 d6 83 3d
       0.020720467 -0.069811 0.058953702 0.064374745
0002b0 e1 fe 05 3e fe a1 59 bd 60 57 d6 3b 80 5f 50 bb
       0.1308551 -0.053133003 0.0065411776 -0.0031795204
0002c0 83 cd 08 be e8 66 c0 bd 39 06 82 bd ac f1 6e bd
       -0.13359646 -0.09394628 -0.06348843 -0.058335945
0002d0 60 a0 ae 3d 44 2a 2b 3d 40 b3 a8 bc b5 05 f2 bd
       0.08526683 0.041788355 -0.020593286 -0.11817495
0002e0 a4 71 15 bd 26 aa e4 3d 8f b7 8b bd 1b f9 ee bd
       -0.03648533 0.11165266 -0.068221204 -0.11668607
0002f0 b8 b8 66 3d 31 77 07 3e e0 de ca bd 3c 7a 5d 3d
       0.056328505 0.13229062 -0.09905791 0.05407165
000300 c0 5f ee bd fc e0 0f bd 47 72 08 be 93 14 c6 bd
       -0.116393566 -0.03512667 -0.13324843 -0.09671893
000310 00 61 b5 3d 52 9b cd 3d 2c 57 68 3d f6 63 be bd
       0.08856392 0.100393906 0.05672376 -0.0929641
000320 60 86 ad 3b 88 6c 07 be 24 c3 11 bd 38 b6 63 3d
       0.0052955598 -0.13224995 -0.03558649 0.0555937
000330 26 e8 ca bd c2 65 2f bd 62 ca e6 bd 6c c7 4d 3d
       -0.0990756 -0.042821653 -0.1126907 0.05023901
000340 6a a2 8f 3d 47 66 8a bd f0 01 8b bd a0 29 af 3b
       0.070134 -0.06757789 -0.06787479 0.0053455383
000350 47 cc 0f 3e 42 ae 10 bd ce bd 2e bd 92 ac a4 3d
       0.1404277 -0.035322435 -0.04266148 0.08040728
000360 8e 92 e6 bd 43 cf 0c 3e ee b1 ec 3d b0 ef 84 3c
       -0.11258422 0.13750939 0.11557375 0.016227573
000370 ba 89 98 bd 18 82 02 3d a8 fc c3 3c 68 77 1e bd
       -0.07448144 0.03186235 0.023924187 -0.038688093
000380 30 fb 14 bd fe bb b0 3d ca 22 4f bd 50 2b 65 3d
       -0.036372364 0.08629607 -0.050570287 0.05594951
000390 22 7e b1 3d a8 e2 ab bd 5c af 58 bd 70 58 49 bc
       0.08666636 -0.083928406 -0.05290161 -0.012289152
0003a0 bc 61 ec bc 58 f2 26 3d 1a 9a 50 bd 7c f6 fe bc
       -0.028855197 0.04075846 -0.050928213 -0.031123392
0003b0 64 c3 14 3d 9c 51 6f 3d d8 c2 fa bd bc 29 c7 bd
       0.03631915 0.05842744 -0.12244195 -0.09724757
0003c0 af 90 8e bd c0 32 f3 3b 2c a7 aa bd e4 09 57 bd
       -0.0696119 0.0074218214 -0.08332667 -0.052499667
0003d0 7f 71 91 bd 40 02 79 bb 6c 9d be 3d f6 19 e4 bd
       -0.07101726 -0.0037995726 0.093073696 -0.11137764
0003e0 38 01 b1 3c 78 44 12 bd 40 21 39 3b 0e 9b a6 3d
       0.021607026 -0.03570983 0.0028248578 0.08135043
0003f0 14 bf 27 3d 40 3f 83 3b a8 87 47 3d df 76 0a 3e
       0.04095371 0.0040053427 0.048713356 0.13521908
